data.pth (torch, 11114 bytes, 6 tensors)

l1.weight f4 [8, 176]
0	0x3fb0a2db	1.37997
1	0x3f1a6907	0.6031651
2	0x3f8510d3	1.0395759
3	0x3f3decb8	0.7418933
4	0x3ed7c6dc	0.42143905
5	0xbd982804	-0.074295074
6	0xbe825022	-0.2545176
7	0x3ed362a2	0.41286188
8	0x3fd416df	1.656948
9	0x3f62abd0	0.88543415
10	0x3e6d2834	0.23159868
11	0x3edf5763	0.43621358
12	0x3ee30ef7	0.44347355
13	0x3e8e6b4b	0.27816233
14	0x3e38ac19	0.180344
15	0xbda36045	-0.07977346
16	0x3ea6b940	0.3256321
17	0x3e623b85	0.22093017
18	0xbf012d2f	-0.5045957
19	0xbe051d15	-0.12999375
20	0x3ee63c6e	0.4496798
21	0x3e7bee7c	0.24602693
22	0x3f6ee758	0.9332175
23	0x3ea41c8f	0.32053038
24	0x3d72c87d	0.05927323
25	0x3f576953	0.84145087
26	0x3e9bc13a	0.30420858
27	0xbe71cab3	-0.2361248
28	0xbe2cba7f	-0.16868018
29	0x3f134d7e	0.5754012
30	0x3fc8aacd	1.5677124
31	0xbd2baa6b	-0.04191057
32	0xbe48bf92	-0.19604328
33	0x3fbf5a23	1.4949383
34	0x3f8ad4a6	1.0846145
35	0x3e7425bf	0.23842524
36	0x3f8bf29f	1.0933417
37	0x3fb69972	1.4265578
38	0x3f2f6eb3	0.6852829
39	0x3ee47a47	0.4462454
40	0x3f55fafc	0.83586097
41	0x3ee9dd43	0.45676622
42	0x3f91f0f0	1.1401653
43	0xbe2ebea6	-0.17064914
44	0x3ec988d6	0.3936221
45	0x3f18ab97	0.59636825
46	0x3e22ad6d	0.15886469
47	0xbd88cfc6	-0.06680255
48	0x3ef1a210	0.47193956
49	0xbb19e682	-0.002348334
50	0x3e9a8284	0.301777
51	0xb9d845cf	-0.00041250742
52	0x3f7fb7c7	0.99889797
53	0x3eeeb76f	0.46624324
54	0x3e23d899	0.16000594
55	0x3e5c7d78	0.21532238
56	0x3e9643b2	0.29348522
57	0x3e2ab64b	0.16671102
58	0x3f312374	0.6919472
59	0x3f3dcbc6	0.7413906
60	0x3e21802a	0.15771547
61	0x3f98759f	1.1910895
62	0x3e659612	0.22420529
63	0xbe2c4e2e	-0.16826698
64	0x3e52142a	0.20515504
65	0x3e0731bd	0.13202567
66	0xbebadce2	-0.36496645
67	0x3fd12d4e	1.6341951
68	0x3f221729	0.6331659
69	0x3eedcb0b	0.46443972
70	0x3e451182	0.1924496
71	0xbd2ae2e4	-0.041720286
72	0x3ef7a212	0.48365837
73	0xbf536e4f	-0.8259019
74	0x3e956753	0.29180393
75	0xbe911ee9	-0.28343895
76	0x3d91eee0	0.0712564
77	0x3fba3d4b	1.4549955
78	0x3ed53560	0.41642284
79	0x3ecfae0e	0.4056248
80	0x3e5df347	0.21674834
81	0x3e4ba65a	0.19887677
82	0x3f0cf2a5	0.55057746
83	0x3ed08ee1	0.40734008
84	0xbe8e2fe1	-0.27770904
85	0x3edae869	0.4275544
86	0x3ec20e28	0.37901425
87	0xbe80bc9d	-0.251439
88	0x3e1719d6	0.1475595
89	0x3cbec3bd	0.023286695
90	0x3f82768f	1.0192431
91	0xbe6e2493	-0.2325614
92	0x3e21a8dc	0.15787071
93	0x3f07cbab	0.5304515
94	0x3f0ab280	0.5417862
95	0x3eccd3e0	0.40005398
96	0x3f24b503	0.643387
97	0x3ed312dd	0.4122533
98	0x3d5306e8	0.05152026
99	0x3f9f0441	1.2423173
100	0x3e8252fe	0.25453943
101	0x3ea913f5	0.33023039
102	0xbe9a617d	-0.30152503
103	0xbe77d9bf	-0.24204157
104	0xbed7ab19	-0.42122725
105	0x3d5321bb	0.05154584
106	0x3f01f808	0.5076909
107	0xbd6ef175	-0.05833574
108	0x3e994a52	0.29939514
109	0x3ecf4b88	0.40487313
110	0x3f626774	0.88439107
111	0xbe515643	-0.20443062
112	0xbec25fd8	-0.37963748
113	0x3f4150db	0.75514
114	0xbea3223b	-0.31862053
115	0x4067696b	3.6158092
116	0x3db36618	0.08759707
117	0x3d8861ba	0.06659265
118	0x3ea9ac08	0.33139062
119	0x3e42d8da	0.19028035
120	0x3eb3f46e	0.35147423
121	0xbf3ee66d	-0.7457035
122	0xbf14d1b7	-0.581325
123	0x403acc8e	2.918735
124	0xbefcae64	-0.493518
125	0xbf05c147	-0.5224804
126	0x3dd260db	0.1027238
127	0x3df20c17	0.11818712
128	0x3e5e3251	0.21698882
129	0x400093b5	2.0090153
130	0x3e0a0773	0.13479404
131	0x3e7c718e	0.24652693
132	0x3a83f19b	0.0010066511
133	0x3fe606b9	1.7970802
134	0x3f49f5f3	0.78890914
135	0x3f9003e6	1.125119
136	0x3e8baedf	0.27281854
137	0x3f4111ac	0.7541759
138	0x3f9d8193	1.2305168
139	0x3ed6308f	0.41833922
140	0x3fa23fc5	1.2675711
141	0x3e759b7d	0.23985095
142	0x3fcc73df	1.5972861
143	0xbe8e5343	-0.277979
144	0xbe3dcc48	-0.18534958
145	0x3f8da6a7	1.1066483
146	0x3f8c66a8	1.0968828
147	0x3f309818	0.68982077
148	0x3dc2cd7b	0.095118485
149	0x3ea63617	0.32463142
150	0x3f268a74	0.6505501
151	0x3f0b98a0	0.5452976
152	0xbea49c58	-0.3215053
153	0x3fb7863c	1.433784
154	0x3e284e67	0.16436158
155	0xbe68206d	-0.2266862
156	0x3c326642	0.010888638
157	0x3eb576de	0.3544225
158	0xbdc7f82c	-0.09764132
159	0x3d94dda9	0.07268841
160	0xbdf56dff	-0.11983871
161	0x3e6d596e	0.23178646
162	0x3d981821	0.07426477
163	0x3ea3ed9a	0.32017213
164	0x3ea1ea83	0.3162423
165	0xbc48a342	-0.012245955
166	0x3e8d2b2a	0.27571994
167	0x3ea844ff	0.3286514
168	0x3eb54727	0.35405847
169	0xbd8fad16	-0.070154354
170	0x3f375925	0.716204
171	0x3e83c352	0.25734955
172	0x3f4e1099	0.80494076
173	0xbe83c04d	-0.2573265
174	0x3e07aeca	0.1325027
175	0x3fa0671b	1.2531465
176	0x3f98736a	1.1910222
177	0xbcaf877e	-0.021426912
178	0x3f07a277	0.52982277
179	0xbe3e314d	-0.18573494
180	0x3e580197	0.21094356
181	0x3e6a7fc8	0.22900307
182	0x3e2d986b	0.16952674
183	0x3eddd367	0.4332535
184	0x3f70ca1a	0.9405838
185	0x3f1ec486	0.6201862
186	0xbdb332bb	-0.087499104
187	0x3ef3b656	0.4760005
188	0x3e833979	0.25629786
189	0x3e2058a8	0.1565882
190	0x3eadbe0f	0.33934066
191	0xbda37211	-0.07980741
192	0xbee3a1a2	-0.44459254
193	0x3ee7623f	0.45192143
194	0xc0163c1d	-2.347419
195	0xbe68e09a	-0.22741929
196	0xbe024b7f	-0.12724112
197	0x3fa13d22	1.2596781
198	0xbe70d708	-0.23519528
199	0x3e7e50c3	0.24835496
200	0x3f53f74f	0.8279924
201	0x3e3cb90d	0.18429966
202	0x3dc76cf0	0.09737575
203	0x3ea54327	0.32277796
204	0xbe2cc36b	-0.16871421
205	0x3f3e183f	0.74255747
206	0x3f39b474	0.72540975
207	0x3d59af6e	0.05314582
208	0x3d9c1d21	0.076227434
209	0xbe6e8875	-0.23294242
210	0xbd142f7e	-0.036178105
211	0x3db71e81	0.08941365
212	0x3f35e7ef	0.7105703
213	0x3e3fc339	0.18726815
214	0x3f06193f	0.5238227
215	0x3eada073	0.33911476
216	0x3ed26de6	0.4109947
217	0x3fa171f2	1.2612898
218	0x3f09d5f8	0.53842115
219	0x3ee6a163	0.45045003
220	0x3f0f0f93	0.5588314
221	0xbe7bfff2	-0.24609354
222	0x3f1aebb8	0.6051593
223	0xbe421140	-0.18951893
224	0xbeb5cb34	-0.35506594
225	0x3ec64d80	0.38731003
226	0xbe4ab94b	-0.19797246
227	0x3f2d5fc5	0.6772426
228	0x3d7b14aa	0.061299004
229	0xbee6df02	-0.45092016
230	0x3ba0c965	0.0049068206
231	0xbedd8c28	-0.43270993
232	0xbf8d8c30	-1.1058407
233	0xbf8f7514	-1.1207604
234	0x3f9f0058	1.242198
235	0xbe455469	-0.19270481
236	0x3f00661b	0.501558
237	0xbd94ba0e	-0.072620496
238	0xbe956a90	-0.29182863
239	0xbf0163aa	-0.505427
240	0x3f3265fe	0.6968688
241	0xbeab9cc8	-0.33518052
242	0xbe41d20e	-0.18927786
243	0x3f4ffa14	0.81240964
244	0x3f22fda6	0.63668287
245	0xbea2a2a6	-0.31764716
246	0xbe6ded8d	-0.2323515
247	0x3eb11d52	0.34592682
248	0xbe0b6c35	-0.13615496
249	0xbfc124cc	-1.5089355
250	0x3eaee858	0.3416164
251	0xbd187ac0	-0.03722644
252	0xbe16b214	-0.14716369
253	0xbeb8d50f	-0.3610005
254	0xbe81368b	-0.25236925
255	0x3ced580c	0.028972648

l1.bias f4 [8]
0	0x3fc71ab0	1.5555019
1	0x3fa4889e	1.2854192
2	0x3ffc518c	1.9712386
3	0x3fec5fca	1.8466733
4	0x3fa6a63b	1.301948
5	0x3fd69237	1.6763371
6	0x3ff63e34	1.9237733
7	0x3fdc421f	1.7207679

l2.weight f4 [8, 8]
0	0x402b91f1	2.6807826
1	0xbf48bd0f	-0.7841348
2	0x40205839	2.5053847
3	0x400347d1	2.0512583
4	0x3f1850d0	0.5949831
5	0x3fa0e867	1.2570924
6	0xbe26cbba	-0.16288653
7	0x4028bbc3	2.63646
8	0x3fcbc7f6	1.5920398
9	0x403806eb	2.8754222
10	0x3f88ef9c	1.0698123
11	0x3ecba3b3	0.3977333
12	0x3fece21c	1.8506503
13	0xbca6a79c	-0.020343594
14	0x3f3533f2	0.7078239
15	0x4017f3e6	2.3742614
16	0x3f6eee98	0.93332815
17	0x3f753ff3	0.95800704
18	0x3ddb3a2b	0.10704454
19	0x403f3552	2.9876294
20	0x40116064	2.2715082
21	0x3ff3c6ae	1.9045007
22	0x3fde7ba9	1.7381488
23	0x3e25c961	0.16190101
24	0x3fc9e303	1.5772403
25	0x3fa0a629	1.2550708
26	0x40220197	2.531347
27	0xbd28288d	-0.041054297
28	0xbf8d46e3	-1.1037258
29	0x40186249	2.3809988
30	0x3f8859a4	1.0652356
31	0x3f268b6d	0.65056497
32	0x3ce0ff3f	0.02746546
33	0xbcc19b68	-0.023633674
34	0x3fa20fe4	1.26611
35	0xbda76649	-0.08173806
36	0x3ec9ab59	0.3938854
37	0x40197668	2.397852
38	0x401dae72	2.4637723
39	0x3ffdef77	1.9838704
40	0xbdebd000	-0.11514282
41	0xbdaeaf78	-0.08529562
42	0xbea0ed85	-0.31431213
43	0xbea59bbc	-0.32345378
44	0x3d61ee78	0.055159062
45	0xbead915c	-0.33899963
46	0xbeaa165c	-0.33220184
47	0x3cc81650	0.024424702
48	0x3f27aa0d	0.6549385
49	0xbf2a154e	-0.6643876
50	0x3fe107df	1.7580527
51	0x3fd2a54c	1.6456695
52	0x400cf7c7	2.2026231
53	0x3bc13a32	0.00589683
54	0x401bfb34	2.4372072
55	0x3d34802f	0.044067558
56	0x3ca889b1	0.020573469
57	0xbe5f8b96	-0.21830592
58	0x3e39b704	0.18136221
59	0xbe942581	-0.28934863
60	0x3e314d54	0.17314655
61	0xbea0256d	-0.31278554
62	0xbe9b173c	-0.30291164
63	0x3d1d4ea2	0.03840507

l2.bias f4 [8]
0	0x3f55e418	0.8355117
1	0x3f8a5a31	1.0808774
2	0x3f94d0c8	1.1626215
3	0x3f0cc78c	0.54991984
4	0x3f9a333f	1.2046889
5	0xbe4a2ee1	-0.19744445
6	0x3f34f677	0.70688576
7	0xbeb36285	-0.35036102

l3.weight f4 [12, 8]
0	0xc0051e18	-2.0799618
1	0x3ea6d81a	0.32586747
2	0xbf9744ce	-1.1817873
3	0xbc5aff09	-0.013366469
4	0x3f3773a5	0.71660835
5	0x3dfdbcc4	0.1238952
6	0xc04a045c	-3.156516
7	0x3e4a320f	0.19745658
8	0x3eee19d7	0.4650409
9	0xbffe3d89	-1.9862529
10	0xbfeae427	-1.8350877
11	0xbc82a907	-0.01594974
12	0x3e46a888	0.19400227
13	0x3e36482e	0.17800972
14	0xc01f2344	-2.4865274
15	0x3e938420	0.2881174
16	0xc0294eb1	-2.645428
17	0xbed1f354	-0.41005957
18	0x3f21145e	0.629217
19	0xbffe0c7c	-1.984756
20	0xbfe0d1a5	-1.7563978
21	0xbea57ea5	-0.32323185
22	0x3f388a35	0.7208589
23	0x3e652c04	0.22380072
24	0x3ecb25bc	0.39677227
25	0xbddcf6ab	-0.10789236
26	0xbfe934a9	-1.8219196
27	0xbf72b549	-0.9480787
28	0xc036ee1c	-2.858283
29	0xbb88f080	-0.0041790605
30	0xbf492f99	-0.78588253
31	0x3e646f60	0.22308111
32	0xbde43dcf	-0.111446016
33	0xc000c4a8	-2.012003
34	0xbf6fc368	-0.9365754
35	0xbf654709	-0.89561516
36	0xbfe0fb8b	-1.7576765
37	0x3e17071a	0.14748803
38	0x3db6b4db	0.08921214
39	0x3e1659d6	0.14682707
40	0x3eb54142	0.3540135
41	0xbf3a3a36	-0.7274507
42	0xbb5a9d73	-0.0033358007
43	0xc0463b8b	-3.0973842
44	0xc02d98b4	-2.7124453
45	0xbd2de008	-0.04244998
46	0xbe888045	-0.26660362
47	0xbdab34f8	-0.08359712
48	0xbfbd701e	-1.479984
49	0xc062cccc	-3.5437498
50	0xbf4f7577	-0.8103861
51	0x3f16211a	0.5864426
52	0x3e824f89	0.25451306
53	0xbe937bca	-0.2880538
54	0xbcadb673	-0.021205163
55	0xbd01be5e	-0.03167569
56	0xc04cb207	-3.198366
57	0xbf9caa3e	-1.2239454
58	0x3f06e6f4	0.52696157
59	0xbecb6b0e	-0.39730114
60	0x3ea8e768	0.3298905
61	0x3e6eaefe	0.23308942
62	0xbf3c9b2f	-0.7367429
63	0x3ea9ffc0	0.33202934
64	0xbeda478a	-0.42632705
65	0x3e81d9c2	0.2536145
66	0xc0523847	-3.284685
67	0xbf9dfcc4	-1.2342763
68	0xbe91c255	-0.28468576
69	0x3e0d4434	0.13795549
70	0xbeaa207a	-0.33227903
71	0xbe264e4c	-0.16240805
72	0x3d904bb8	0.07045692
73	0x3d34f21c	0.044176206
74	0xc03edb1e	-2.9821239
75	0x3f409a92	0.75235856
76	0xbf44273b	-0.7662236
77	0xbe829267	-0.2550232
78	0xc04390ec	-3.0557203
79	0x3d1cef9c	0.038314447
80	0xbf6a9b42	-0.91643155
81	0xc014bace	-2.3239017
82	0x3ecc3a52	0.39888245
83	0xc05b00bc	-3.4219198
84	0x3dc076f9	0.09397692
85	0xbe888507	-0.26663992
86	0x3f1a5258	0.60281897
87	0x3e583fba	0.2111806
88	0xbf950d42	-1.1644671
89	0x3f478b4d	0.7794693
90	0xbf0058ad	-0.5013531
91	0xc01ef252	-2.48354
92	0xbf9e4bc6	-1.2366874
93	0x3cc38170	0.023865432
94	0xbf9b6048	-1.2138758
95	0x3da193b4	0.078895

l3.bias f4 [12]
0	0xbd206f58	-0.039168686
1	0x3c95c31e	0.018281516
2	0x3d216c19	0.03940973
3	0xbe967086	-0.29382724
4	0xbe83620e	-0.25660747
5	0x3bba47b9	0.0056848195
6	0xbec02736	-0.37529916
7	0x3e5ac723	0.21365027
8	0x3d904b05	0.07045559
9	0x3d06b00f	0.032882746
10	0x3f09d0cc	0.53834224
11	0x3f07f5d5	0.53109485
