data.pth (torch, 5354 bytes, 6 tensors)

l1.weight f4 [8, 45]
000000 fb 7a 19 be 99 24 e8 3e 64 9f 0a be 7e c9 0b 3f
       -0.1498832 0.45340422 -0.13537365 0.5460433
000010 54 9d 44 be 2b ae 8a bc 48 d3 e9 bd 75 9d a5 3e
       -0.19200641 -0.016928753 -0.11417252 0.32346693
000020 81 cd 4f be ac 3d 1c bf 6a c0 b8 bb 8a 2e e6 3e
       -0.20293237 -0.61031604 -0.005638172 0.4495738
000030 60 9a 87 be 0c 84 ce 3e 00 d3 85 bc de 4c 29 be
       -0.26484966 0.4033512 -0.016335964 -0.16533229
000040 33 45 03 bf dc e4 00 bf 49 2d b1 3e ea 9c 3d be
       -0.51277465 -0.5034921 0.34604862 -0.18516889
000050 cf 27 ee bc 27 a4 c8 3d 11 09 10 bf 69 9d 61 be
       -0.029071717 0.097969346 -0.56263834 -0.22032703
000060 50 1b 4f 3c fd 3b 4f 3f 64 50 a0 be fd 8e 4f 3e
       0.012640789 0.8095091 -0.31311333 0.2026939
000070 06 a3 8a bd 70 ef 87 be eb 10 00 3f 63 e4 ae be
       -0.067693755 -0.26549864 0.50025815 -0.3415862
000080 04 13 a9 3e 51 b0 1e 3f 9d 64 30 be 17 42 7d be
       0.3302232 0.6198779 -0.17225881 -0.24732243
000090 c6 db 60 be 8f c7 51 3f ad c1 2a bf e3 4a 81 be
       -0.21958837 0.8194513 -0.66701776 -0.25252447
0000a0 10 c7 1c bc 10 90 8c be 53 88 fa 3e 2f 33 6f be
       -0.009568945 -0.2745366 0.48932132 -0.23359369
0000b0 8e 1a 17 be ee b6 d9 bd 8d 2c ab 3d 23 16 e4 be
       -0.14756224 -0.10630594 0.08358107 -0.4454814
0000c0 75 9a 77 be d4 38 a5 3e df 3b 6b be 9c 6b 4b bf
       -0.24180014 0.3226992 -0.22972058 -0.79461074
0000d0 1c 04 4a 3f c8 15 96 bd 9d db f1 bc 47 4d 04 3f
       0.7891252 -0.07328373 -0.029523665 0.51680416
0000e0 3c be 21 3e 88 28 57 bd 1c 65 4b 3f f8 12 43 3e
       0.15795225 -0.052528888 0.79451156 0.19050205
0000f0 fa 50 e2 3e 0f 4d d7 be 7b 4e d7 be cc 03 3e 3f
       0.44202405 -0.4205098 -0.42052063 0.74224544
000100 48 00 8f be 72 4c c9 3e 8c ad 54 3f e3 e7 36 be
       -0.27929902 0.39316136 0.8307731 -0.17861895
000110 74 8d 04 3d 1f 37 4c 3e 06 bb 2b bf 46 cd 9d 3e
       0.032361463 0.19942902 -0.6708225 0.30820674
000120 e1 67 1b 3f 8a 7c 67 3e e6 cc 5c bd e5 10 af 3d
       0.6070538 0.22606102 -0.053906344 0.08548144
000130 ed e1 4b 3e f6 51 36 3f 05 d6 9f 3e 03 c2 ba 3e
       0.19910403 0.7121881 0.3121797 0.36476144
000140 58 93 bc be 2a c3 57 bd 4a 62 ef be 83 66 78 3f
       -0.36831164 -0.052676357 -0.46754676 0.9703142
000150 36 42 57 bd ab b5 98 3e 58 5f b4 3c 0e b9 28 3e
       -0.052553378 0.29826102 0.02201812 0.16476843
000160 73 e9 8b 3e 14 69 34 bc 77 0c e2 3e ba 9c 6c bc
       0.27326545 -0.011011381 0.44150135 -0.014441663
000170 69 bf f4 3e cc a1 05 3e fb 7c 88 3e 98 f7 b0 3e
       0.47802284 0.13050002 0.26657853 0.345639
000180 c7 fd 74 bf 4a 38 2c 3f 4e 3f b2 3e b6 4a ed 3e
       -0.95699733 0.6727339 0.34813923 0.46346062
000190 fc 4a c0 3d 8f f1 35 bd 76 a7 a7 3e 20 7f 05 3f
       0.09389302 -0.04441982 0.3274495 0.521471
0001a0 d2 09 87 3e f6 d0 ea 3e 6b 60 32 3f e5 b4 3f 3f
       0.2637468 0.4586255 0.6967837 0.748854
0001b0 ba b9 11 3f bf 2d ac 3e 6e 01 31 3e 73 80 6c be
       0.5692402 0.33628651 0.17285702 -0.23095874
0001c0 5d 82 3d 3f b9 c5 2c 3f d8 13 8e 3e ac 64 e9 be
       0.74027044 0.674892 0.27749515 -0.4558462
0001d0 de 09 a0 3e ac 2f 81 be 91 a8 dc 3e 32 49 b0 3e
       0.31257528 -0.25231683 0.43097356 0.34430844
0001e0 5f 2c 57 be 27 4b 8d 3e 7e 46 1c 3f 7e 1d cf be
       -0.2101302 0.275964 0.6104506 -0.40452188
0001f0 57 c3 ce 3e d7 b6 1d 3f 5b 7f 97 3e 9b a8 b8 be
       0.40383407 0.61607116 0.29589352 -0.36066136
000200 cf 69 a2 3e 58 a6 0f 3f 81 a9 af 3e bc 6a 33 3f
       0.3172135 0.56113195 0.3430901 0.7008474
000210 0c 45 25 bd df 5c cc 3e bd 44 9b 3e 8d 8a 82 bd
       -0.04034905 0.39914605 0.3032588 -0.06374083
000220 dd 9c 07 3d aa 4b a3 bd 7e 68 bf 3e d0 3e 06 3e
       0.03310858 -0.07973416 0.3738441 0.13109899
000230 43 fb 1c be 49 69 88 bf 88 88 bf 3e b2 51 01 be
       -0.15330224 -1.065713 0.37408853 -0.1262882
000240 26 ef 8e 3f 13 cd 0d 3e e6 fe d6 3d d5 55 bc 3a
       1.1166732 0.13847761 0.10497837 0.0014368842
000250 cd 09 aa be 2f 6f 60 3e 59 da 19 3f e5 d4 ca bd
       -0.33210602 0.21917413 0.600988 -0.09903888
000260 50 26 cc bd e2 ed 83 be 8b d4 0a bd a0 07 7f 3e
       -0.09968245 -0.25767428 -0.033894103 0.24905252
000270 2c fc d4 be 27 a6 b8 bd 85 fb db 3e d2 cd e8 3e
       -0.41598642 -0.09016066 0.42965332 0.45469528
000280 7c 74 46 bf f6 5c 5c 3f 59 78 5e be 17 b1 29 3f
       -0.7752149 0.8607935 -0.21725596 0.6628584
000290 aa 85 6d 3d 47 29 b8 bd aa 00 db 3e f7 67 1d be
       0.0579888 -0.08992248 0.42773944 -0.1537169
0002a0 56 f2 15 3f 11 4f ce 3e 0b 4d c1 bd d7 96 44 3d
       0.585729 0.40294698 -0.09438523 0.047995415
0002b0 6c 92 80 3f 56 b7 46 bf b2 73 cd bd 2b d4 ba 3e
       1.0044684 -0.776235 -0.10031833 0.36489996
0002c0 ad 0b 12 3f e9 45 61 bc ae 54 e5 3e eb e3 4d be
       0.57049066 -0.013749578 0.44791168 -0.20106475
0002d0 e4 e5 ca bd 13 a3 10 be 3f 6f 8c be f5 24 3a be
       -0.099071294 -0.14124708 -0.27428624 -0.1817816
0002e0 2e 15 2a 3f 75 92 10 3d d2 45 b9 be ff ba 81 3e
       0.6643857 0.035295922 -0.3618608 0.2533798
0002f0 4b f3 aa bd 06 11 6b 3d b2 65 2a 3f 7a 3f 4b 3d
       -0.08347186 0.05738928 0.66561425 0.049621083
000300 dd c6 4b bd 00 e5 39 be 62 c2 6e 3e 6e 50 0f 3f
       -0.049750198 -0.18153763 0.23316339 0.559821
000310 9b 5a 8d be 00 62 91 be f9 e9 ac be 98 e4 0f bf
       -0.2760819 -0.2839508 -0.33772257 -0.5620818
000320 b9 84 a8 3e 5d 88 2b 3e a1 30 ef bd 99 5b ba 3e
       0.3291376 0.16751237 -0.11679197 0.36398008
000330 2d cd 5f 3e 5a 97 58 bd f4 fb e4 3e 29 9c 44 3e
       0.21855612 -0.052878715 0.44723475 0.19200195
000340 64 19 c3 3e a6 65 38 3c 9c 81 43 be 74 59 09 3f
       0.3810531 0.011254704 -0.19092411 0.5365212
000350 ee ed 60 be 85 80 bf 3c 16 1e 9e 3e c6 ef ae bd
       -0.21965763 0.023376713 0.3088233 -0.08541827
000360 bc 33 e5 bc bf 32 07 3d e6 99 0d be 1b 18 f9 bd
       -0.02797877 0.03300738 -0.13828239 -0.12162801
000370 75 d9 63 3e 80 e4 87 3e 8d 03 af bd e5 d2 01 3f
       0.22250922 0.2654152 -0.08545599 0.50712425
000380 ff 32 02 bd 65 87 3e 3e 51 ca 4a 3f 78 d1 08 3f
       -0.031786915 0.18606336 0.7921496 0.53444624
000390 d0 21 cd 3e c9 a8 3a 3e 7d 0d de 3e e6 94 74 3f
       0.4006486 0.18228449 0.43369666 0.955397
0003a0 83 14 6a 3f 89 f4 84 3e 0e e7 48 3f 6a ad ba 3c
       0.9143755 0.25967816 0.7847756 0.022787768
0003b0 63 36 4a 3f fe e1 a0 3e 15 af 28 3f f0 69 85 be
       0.7898924 0.31422418 0.65892154 -0.26057386
0003c0 e5 e2 18 bf 82 8b 3a 3f 9d 7d 41 3f ba f9 d9 3e
       -0.59721214 0.7286912 0.75582296 0.4257334
0003d0 80 89 f0 3e c8 04 d2 bd 48 5a 0e 3f 9f 78 25 3f
       0.46979904 -0.10254818 0.5560651 0.6463718
0003e0 11 4c 0b 3f 17 6c f5 be 07 d4 a4 be 3a 6f 2f bf
       0.54412943 -0.47934029 -0.32193014 -0.68529093
0003f0 50 c3 3c 3f 5d 4a dc be 48 7b bd 3e 9e ad 2f 3f
       0.73735523 -0.43025485 0.3700812 0.68624294

l1.bias f4 [8]
000000 9a 3c 03 3f 2f 6b d7 3e 54 70 22 3f ce b8 bc 3e
       0.51264346 0.42073962 0.6345265 0.36859745
000010 25 6f f8 3e d7 d6 51 3f d7 9c 74 3f 68 d2 2d 3f
       0.48522297 0.81968445 0.9555182 0.6789918

l2.weight f4 [8, 8]
000000 df 9e a2 3e c2 f9 16 be 80 f4 4f bc 69 f6 48 be
       0.31761834 -0.14743713 -0.012692571 -0.19625248
000010 20 db 51 bd 30 b0 b7 be ce de 3a be 00 57 13 3d
       -0.051234365 -0.35876608 -0.18249056 0.03597164
000020 e6 06 23 bf 19 2c 59 3f f8 a5 95 3f fd b9 89 3f
       -0.636824 0.8483291 1.1691275 1.0759884
000030 02 8c d2 be ac 05 8b 3f a1 ed cb be 0d d5 50 bf
       -0.41122442 1.0861106 -0.39829734 -0.8157509
000040 47 d4 2d be bc 3d a5 3f 05 1f 70 3f bc 21 ca bd
       -0.16975509 1.2909465 0.9379733 -0.098697156
000050 47 97 d3 3e 60 05 3c bf 91 1b 15 bd 00 db 05 3f
       0.41326353 -0.734457 -0.036403242 0.5228729
000060 1d 5e 69 bf 21 a9 23 bf cd 43 80 3f bb 4f 40 3e
       -0.9115923 -0.63929945 1.0020691 0.18780415
000070 1f ef 4e 3f 07 19 43 3e 28 48 8e 3f 1c 06 ac 3d
       0.8083362 0.19052516 1.111577 0.08399603
000080 96 7a f9 be 46 f5 a7 3f ee b1 93 3e cc bb b5 be
       -0.48726338 1.3121727 0.28846687 -0.3549484
000090 e0 d4 8f 3f a5 93 1b 3e cd 1d 1e bf 96 48 a8 3f
       1.1236839 0.1519304 -0.6176422 1.3147151
0000a0 96 e3 f0 be f0 cb b8 3d a0 42 af 3f b9 39 41 bd
       -0.47048634 0.09023273 1.3692207 -0.04717419
0000b0 40 fd 7b 3e eb 2c 73 be 69 4d a3 3f 6b 26 13 3c
       0.24608326 -0.23747604 1.2757999 0.0089813275
0000c0 69 68 8d 3f 23 ae 0c be 35 98 91 be b2 bd b4 bf
       1.1047488 -0.13738303 -0.28436437 -1.412039
0000d0 fb 11 95 bd 67 46 97 3f 16 ad 5e 3f ed 95 15 3f
       -0.0727882 1.181836 0.8698286 0.58431894
0000e0 ea 32 ea 3e 5f b3 a2 3e 23 ef 9e 3c a0 fc b1 3f
       0.4574197 0.31777474 0.019401139 1.390522
0000f0 18 5c fc 3e 76 37 44 bf 52 93 20 3f 26 26 5c 3f
       0.49289012 -0.76647127 0.6272479 0.8599571

l2.bias f4 [8]
000000 35 2f 4d be bc 21 66 3e a5 8b 3d bd 32 a0 bb 3e
       -0.2003754 0.22473806 -0.046275754 0.36645657
000010 27 1f c0 3d 00 b1 dd 3d f2 82 f7 3e 6c 35 24 3f
       0.09380942 0.10824776 0.4834209 0.64144015

l3.weight f4 [11, 8]
000000 df de 44 3e 8c 54 0e 3f 1f 78 e6 3e c9 57 82 bf
       0.19225644 0.5559776 0.4501352 -1.018304
000010 81 10 aa bc 25 dc d9 bd 9f d1 0e bf 69 fd 73 bf
       -0.020759823 -0.10637692 -0.55788606 -0.9530855
000020 b7 3f 3c 3e 8b 71 b4 bf c1 de 09 bf 82 0e fc be
       0.1838368 -1.409715 -0.5385552 -0.4922982
000030 72 f3 9f bf 9d b5 2e bf b9 0f 31 3f cf 39 b8 be
       -1.2496169 -0.6824587 0.69164616 -0.35981604
000040 e2 ee 14 3c 48 f7 f4 3e 1e 6b 38 3c 5d ff 1e 3d
       0.009090157 0.4784491 0.0112560075 0.038817752
000050 8d d9 13 3e aa ce ec 3b 67 69 e2 bf 36 96 d8 be
       0.14438458 0.0072267847 -1.7688416 -0.42302102
000060 0f e8 12 3e 6e af 6b 3f 66 85 31 bf e5 be 22 bf
       0.14346336 0.9206456 -0.69344175 -0.6357253
000070 c0 5b d7 bf 47 76 9e bf 2b 7c bc 3c c4 74 7a be
       -1.6824875 -1.2379845 0.023008427 -0.24458605
000080 95 61 f6 3b 41 d6 07 3e d0 dd 90 bf e3 04 91 bf
       0.007518957 0.13265325 -1.1317692 -1.1329616
000090 f4 cc 46 3e 72 6e 4a bf 19 d1 3e 3e cd 7b 1a bf
       0.19414121 -0.79074776 0.18634452 -0.60345155
0000a0 06 bd 80 3e 8c 9c b3 bf a0 90 22 bf 62 4a 3d bf
       0.25144213 -1.4032149 -0.6350193 -0.73941624
0000b0 19 16 a4 bf 9a 50 17 bf a9 43 2a 3f 7d f7 d4 be
       -1.2819244 -0.59107363 0.6650949 -0.4159507
0000c0 ea ef 6a be 13 ad d6 bf a0 9a 64 be 3d 0d 94 3e
       -0.22943082 -1.6771568 -0.2232461 0.2891635
0000d0 0a 99 9e bc ce b8 3b 3e d5 39 12 3c 6d ff be bd
       -0.019360084 0.18332216 0.008924921 -0.09326062
0000e0 85 9b 3a be 1b af 8a bf 79 b0 4a 3f c5 fa 9b 3e
       -0.18223388 -1.0834688 0.79175526 0.3046476
0000f0 50 85 01 bd 7f 6c 02 3f e0 5f e5 bf b9 90 db 3e
       -0.031621277 0.509468 -1.7919884 0.42883852
000100 16 97 8d 3e 21 5e 22 bf 31 57 e2 3e 30 48 4a bf
       0.27654332 -0.6342488 0.44207147 -0.790164
000110 d0 df 10 3f 23 5e 45 bf 91 47 04 bf fa ee 17 be
       0.5659151 -0.77096766 -0.516717 -0.14837256
000120 41 e4 6f bd a7 20 4f bf 14 5a 0c bf 1b 58 5c bf
       -0.05856729 -0.809092 -0.5482495 -0.8607194
000130 49 8e 87 bf 11 88 3b bf e9 e5 36 be 2f 35 71 3f
       -1.0590297 -0.73254496 -0.17861141 0.94221777
000140 42 5d 01 be e5 6c 08 be e9 23 fb be 1a 54 42 3f
       -0.12633231 -0.1332279 -0.49050835 0.7590958
000150 9b 83 d7 bf 5d cc 17 3f bc 2a bb bd 08 3c a1 be
       -1.6837038 0.5929621 -0.0913901 -0.31491113

l3.bias f4 [11]
000000 b1 ae 1a bf 1c ec 34 be ab e5 88 3d 9a 8d 37 3e
       -0.6042281 -0.17668194 0.06684431 0.1792511
000010 be 5a b5 be 21 fc 75 3e bc 97 2e be d2 00 8f 3d
       -0.35420793 0.24021961 -0.1705007 0.06982578
000020 25 90 ec be 79 10 c2 3e 21 fe ee 3e
       -0.46203724 0.37903193 0.4667826
