data.pth (torch, 17322 bytes, 6 tensors)

l1.weight f4 [8, 298]
0.20248805 -0.052873243 -0.0819046 0.09007657 -0.46783674 0.24050367 0.30840102 -0.1333849
-0.0293324 -0.09722872 -0.0241121 -0.040713243 0.5488817 -0.12243982 0.16917485 1.3282038
0.18613644 0.096441254 -0.9549017 -0.092749596 0.27210584 -0.13565643 0.19030179 0.089449964
-0.37844193 0.17095093 0.037992693 -0.30268493 -0.0207541 0.040251967 0.20662908 -0.25396487
0.25009215 -0.42077658 -1.5308642 0.9504731 0.23471807 -0.13814977 -0.045835864 -0.20814952
0.3050456 0.16512159 -0.13291875 -0.14135754 0.20338048 0.6960342 -0.35116735 0.5283601
-0.22199833 0.5104278 0.07502382 0.029609296 -0.049578268 -0.9649151 1.8749584 -0.4244682
-0.049144942 -0.40906662 0.017075978 -0.27142414 -0.38605577 0.062211763 0.1686731 -0.38294682
-0.2424413 0.2251351 -0.49609748 0.14774029 -0.08073382 -0.18507996 0.10894993 -0.50732404
-0.4917428 -0.053240012 -0.505797 0.6227003 -0.41044733 -0.21295916 -0.42079324 -0.01800372
-0.22008647 -0.06708763 -0.05352187 -0.020487089 0.017786928 0.19657153 -0.1013521 -0.40775752
0.3285094 0.33043557 -0.5795706 -0.34003735 0.14101236 0.17924069 0.1959355 0.18845294
-0.18237616 0.38571388 0.15354152 -1.0301117 -0.23416746 -1.0278306 0.17932668 -0.4399152
0.11496979 -0.7195536 0.15909731 -0.48582143 0.1703798 -0.8267698 -0.056431074 0.18691903
-0.15252486 0.01617626 -0.06470317 -0.053134244 0.3160753 -0.11154472 0.07359135 -0.5666149
-0.024154546 -0.2732232 -0.47308496 -0.7241735 -0.09865881 -0.60376173 -0.2435527 -0.049676917
-0.022383261 0.47699565 0.4638376 -0.16786897 -0.07280136 -0.66965836 0.10775724 -0.43927243
0.008514306 0.40316424 -0.11132562 -0.43891212 -0.027726624 0.06489392 -0.035579596 -0.37093592
-0.05038227 -0.19589296 -0.11409811 0.03832978 -0.31515527 -0.016023848 0.575032 1.0708864
-0.08582116 -0.11394358 -0.5627841 -0.008131891 -0.03873927 -0.17054771 0.45559418 0.23008184
0.47592384 -0.10332243 0.17374396 0.0076398486 -0.22191672 -0.98376834 0.37462342 0.08638258
-0.117148586 0.34066358 -0.0030025144 -0.08351049 -0.033708256 -0.663338 -0.06421304 0.35970405
0.027703952 -0.034193285 -0.61667734 -0.12085437 -0.019021282 0.22760081 0.2573822 -0.32364345
1.8705952 1.6376595 -0.16546658 0.26990935 -1.1500065 -0.63682806 0.003742382 -0.05246325
-0.09922636 0.007714279 -0.11137124 -0.41590932 -0.26084158 0.03701261 -0.060382467 -0.048844863
-0.1154741 -0.24477963 -0.005710355 -0.21977763 0.4315236 -0.011183934 -0.12145576 0.077337325
-0.13858555 -0.14525001 -0.87129515 -0.02419037 -1.1351773 0.30040538 -1.4781934 -0.09789957
0.0028108966 -0.0147285685 -0.54699814 0.17354958 0.15676202 -0.036200285 -0.025770921 8.766393
-0.018818084 -0.048688482 -0.07445104 -0.042763334 -0.022813868 -0.32933336 -0.11823084 0.67059195
0.3588323 -0.7675827 0.0060184393 0.18075067 0.24840456 -0.14722118 -0.07745203 -0.021469755
-0.29073325 -0.015977066 -0.21396531 -0.007684515 -0.014052949 -0.16464102 -0.34636706 0.020737927
0.91422546 -0.055057645 0.42375508 -0.58695185 -0.2540992 -0.12391117 -0.17872919 -0.06136058
00000000: 0759 4f3e 9d91 58bd 99bd a7bd 117a b83d
00000010: 4c88 efbe 9846 763e bde6 9d3e 0d96 08be
00000020: 804a f0bc da1f c7bd bd86 c5bc eec2 26bd
00000030: 8383 0c3f bac1 fabd 2c3c 2d3e 9502 aa3f
00000040: 8d9a 3e3e fe82 c53d 7074 74bf 80f3 bdbd
00000050: 7551 8b3e 85e9 0abe 79de 423e 8b31 b73d
00000060: 24c3 c1be c30d 2f3e 3a9e 1b3d 85f9 9abe
00000070: 8104 aabc 3fdf 243d 9396 533e af07 82be
00000080: 140c 803e 0770 d7be 5cf3 c3bf 3552 733f
00000090: ef59 703e 2277 0dbe 63be 3bbd 2625 55be
000000a0: f02e 9c3e a215 293e da1b 08be 08c0 10be
000000b0: f942 503e 4c2f 323f 35cc b3be 9c42 073f
000000c0: 8853 63be 65ab 023f 17a6 993d 328f f23c
000000d0: 9512 4bbd ad04 77bf a3fe ef3f e553 d9be
000000e0: 354c 49bd 2e71 d1be ece2 8b3c 1bf8 8abe
000000f0: 1aa9 c5be c3d1 7e3d a4b8 2c3e 9b11 c4be
00000100: 8842 78be d189 663e 7d00 febe 3b49 173e
00000110: c657 a5bd 9a85 3dbe 2421 df3d fddf 01bf
00000120: b6c5 fbbe 3312 5abd ea7b 01bf 4969 1f3f
00000130: 2726 d2be f711 5abe 3672 d7be 8a7c 93bc
00000140: 595e 61be 3d65 89bd c039 5bbd 8ad4 a7bc
00000150: e4b5 913c 0c4a 493e b191 cfbd 98c5 d0be
00000160: 6232 a83e da2e a93e bd5e 14bf 6019 aebe
00000170: 8b65 103e df8a 373e 51a3 483e cff9 403e
00000180: d1c0 3abe 4a7c c53e fd39 1d3e b3da 83bf
00000190: 98c9 6fbe f48f 83bf 6aa1 373e 913c e1be
000001a0: 4875 eb3d aa34 38bf 68ea 223e 96bd f8be
000001b0: 0b78 2e3e 30a7 53bf 4524 67bd b467 3f3e
000001c0: 7a2f 1cbe 1384 843c 1883 84bd 4ba3 59bd
000001d0: 9fd4 a13e 8f71 e4bd 10b7 963d ad0d 11bf
000001e0: c1df c5bc e9e3 8bbe 3138 f2be 6f63 39bf
000001f0: a10d cabd 2190 1abf e165 79be 067a 4bbd
00000200: 1a5d b7bc c638 f43e 1f7c ed3e d8e5 2bbe
00000210: e118 95bd bb6e 2bbf d4af dc3d 51e8 e0be
00000220: 967f 0b3c 8b6b ce3e b0fe e3bd 17b9 e0be
00000230: f222 e3bc 1be7 843d e9bb 11bd 50eb bdbe
00000240: a45d 4ebd 2a98 48be 45ac e9bd b0ff 1c3d
00000250: 085c a1be 7244 83bc 4c35 133f ce12 893f
00000260: 01c3 afbd 405b e9bd 9e12 10bf 9f3b 05bc
00000270: 12ad 1ebd 0fa4 2ebe a443 e93e 939a 6b3e
00000280: 4aac f33e b69a d3bd f0e9 313e b257 fa3b
00000290: 233e 63be 3ed8 7bbf a4ce bf3e 5ae9 b03d
000002a0: 99eb efbd 756b ae3e d5c5 44bb 8c07 abbd
000002b0: ab11 0abd 85d0 29bf 2082 83bd 212b b83e
000002c0: 66f3 e23c 420e 0cbd 91de 1dbf 7f82 f7bd
000002d0: 85d2 9bbc 3010 693e 9ac7 833e 98b4 a5be
000002e0: aa6f ef3f d49e d13f 1270 29be 8f31 8a3e
000002f0: 6a33 93bf 2a07 23bf c042 753b b4e3 56bd
00000300: 3137 cbbd 10c8 fc3b 9b16 e4bd 11f2 d4be
00000310: 078d 85be 899a 173d 9b53 77bd 8d11 48bd
00000320: af7d ecbd 83a7 7abe ee1d bbbb 630d 61be
00000330: a9f0 dc3e d23c 37bc ccbd f8bd 0863 9e3d
00000340: 5fe9 0dbe 6bbc 14be 330d 5fbf e22a c6bc
00000350: 7d4d 91bf bcce 993e 7135 bdbf 927f c8bd
00000360: 0537 383b 1850 71bc 1208 0cbf fbb6 313e
00000370: 3986 203e c046 14bd 8a1d d3bc 2543 0c41
00000380: 6228 9abc 936d 47bd c979 98bd 9b28 2fbd
00000390: 26e4 babc 629e a8be 0323 f2bd eaab 2b3f
000003a0: deb8 b73e 4d80 44bf 5436 c53b b416 393e
000003b0: c45d 7e3e 26c1 16be 2b9f 9ebd 57e1 afbc
000003c0: fdda 94be 56e2 82bc b919 5bbe 62ce fbbb
000003d0: 573e 66bc a897 28be 0657 b1be 96e2 a93c
000003e0: ae0a 6a3f 2084 61bd 6df6 d83e 7a42 16bf
000003f0: 4a19 82be 24c5 fdbd c904 37be 3b55 7bbd

l1.bias f4 [8]
-0.2060772 0.26568586 0.32455963 -0.17507872 0.1351788 0.051138055 -0.0046656984 -0.05053527
00000000: e705 53be fa07 883e ae2c a63e d647 33be
00000010: 506c 0a3e 2376 513d b7e2 98bb 12fe 4ebd

l2.weight f4 [8, 8]
0.054568082 -0.14460854 8.10865 -0.4214123 -0.04718691 2.4947128 0.03085684 -0.047810268
-0.025115063 8.322325 0.12678905 1.5833902 0.56453717 1.1409482 -0.019911507 -0.046899553
-0.104755886 0.18481562 0.6427525 -0.034905523 9.812507 -0.020373566 -0.060668617 1.4152741
0.061522022 0.16166145 -0.8824526 7.63472 -0.06384633 3.359614 -0.021430813 -0.0011320981
0.019638235 -0.085771985 0.0073972624 -0.2751544 -0.0046310667 -0.34278753 -0.08440668 -0.08067184
0.36443186 -0.02095805 0.11380908 -0.06055039 0.06791253 0.014434371 5.5236297 5.169492
9.540546 -0.49725556 0.19315359 0.02629893 -2.883587 0.017177803 0.32238784 -0.058505572
-0.009004006 -0.07869202 0.011419558 0.06797196 -0.18671173 0.45984936 7.2237473 2.5944502
00000000: c882 5f3d 4314 14be 08bd 0141 5ac3 d7be
00000010: 1047 41bd 60a9 1f40 7cc7 fc3c b3d4 43bd
00000020: 1bbe cdbc 3e28 0541 fdd4 013e 88ac ca3f
00000030: 8285 103f 970a 923f 751d a3bc bf19 40bd
00000040: 418a d6bd 4e40 3d3e 6e8b 243f 18f9 0ebd
00000050: 0700 1d41 77e6 a6bc a87f 78bd b427 b53f
00000060: 84fe 7b3d 948a 253e 6ae8 61bf a04f f440
00000070: ddc1 82bd ea03 5740 ac8f afbc e962 94ba
00000080: 5de0 a03c 39a9 afbd bc64 f23b 0ae1 8cbe
00000090: 34c0 97bb d981 afbe 69dd acbd 4737 a5bd
000000a0: d096 ba3e 37b0 abbc bc14 e93d b003 78bd
000000b0: b915 8b3d 247e 6c3c 93c1 b040 7a6c a540
000000c0: 14a6 1841 4898 febe 0eca 453e db70 d73c
000000d0: b08c 38c0 77b8 8c3c 0510 a53e 8aa3 6fbd
000000e0: 8a85 13bc 4829 a1bd 1919 3b3c e234 8b3d
000000f0: 5c31 3fbe 6071 eb3e f028 e740 790b 2640

l2.bias f4 [8]
-0.26395872 -0.23766015 -0.378753 -0.0108197 -0.385872 -0.16364808 0.12623908 -0.09196859
00000000: 9925 87be 2f5d 73be eaeb c1be 1c45 31bc
00000010: 0491 c5be 5d93 27be d144 013e 075a bcbd

l3.weight f4 [17, 8]
0.4415928 -12.662287 -9.350944 -14.84784 -0.15124714 -13.459729 -0.79091686 -10.1533
0.63551635 0.34375367 -7.839883 0.39093918 -0.34830558 -11.115572 -4.737346 0.08347872
0.6862473 0.34850267 0.5857518 -0.79256666 -0.18273783 -0.17675012 -0.9883843 -5.9471707
-9.435486 0.22602622 -9.9272375 0.3557664 -0.38264933 -0.671463 0.5552608 -6.4217577
-0.043251254 0.36120415 0.4134711 0.38809097 -0.35667664 -9.957475 -0.8565462 -0.99439836
0.258511 -0.17646833 -12.287326 0.25227556 0.24247448 0.029230066 0.4937603 0.24436165
-3.6820705 0.32065943 0.57248515 0.26414555 -0.28955624 0.21668935 -5.6014466 0.30273104
0.64693207 -8.259682 -1.4173263 -2.2984378 -0.07704595 0.27266893 0.5652176 0.428271
-14.352123 -10.601243 0.15193748 -0.2928909 0.03406836 0.239211 0.53580654 0.39401722
-11.0965805 -5.82075 0.46526906 -13.900904 -0.19889326 0.2431959 -2.5194063 0.38972673
-0.21943228 -12.857993 0.23256046 -14.161661 0.1463931 -0.052213375 0.22822598 0.07247909
0.7163974 -0.07529653 0.5720002 0.12081838 -0.37254325 0.2751895 0.5028165 0.42028478
-0.721003 -9.27937 -11.134889 -0.41786706 0.12303359 -1.7239634 0.49467194 -9.776956
-12.147459 0.3103988 -7.7852607 0.29548588 0.14435974 -18.871746 0.4227397 -14.8043585
0.6289903 0.2766329 0.12982546 -0.077505805 -0.069769196 -11.511366 -6.226955 -3.677602
0.67649156 0.2315723 0.36058307 0.35445163 0.024341548 0.2320384 0.2181984 0.3890421
-9.541048 -0.17478275 0.3902538 -8.482377 -0.2773215 -11.574006 -5.103005 -9.601044
00000000: 7418 e23e ba98 4ac1 779d 15c1 c190 6dc1
00000010: 88e0 1abe 0d5b 57c1 8779 4abf eb73 22c1
00000020: 33b1 223f 7b00 b03e 52e0 fac0 2e29 c83e
00000030: 1c55 b2be 62d9 31c1 5798 97c0 e4f6 aa3d
00000040: e7ad 2f3f f16e b23e d4f3 153f a6e5 4abf
00000050: a01f 3bbe fcfd 34be c106 7dbf 394f bec0
00000060: c0f7 16c1 6b73 673e f7d5 1ec1 0327 b63e
00000070: 9dea c3be 00e5 2bbf 9225 0e3f 0a7f cdc0
00000080: 3a28 31bd c0ef b83e 7cb2 d33e dcb3 c63e
00000090: 529e b6be d151 1fc1 9d46 5bbf e490 7ebf
000000a0: 8e5b 843e 1db4 34be e398 44c1 432a 813e
000000b0: 3b4b 783e e473 ef3c 26ce fc3e f139 7a3e
000000c0: 0ba7 6bc0 792d a43e 638e 123f 163e 873e
000000d0: b740 94be d0e3 5d3e 0d3f b3c0 90ff 9a3e
000000e0: 579d 253f a827 04c1 f36a b5bf 9b19 13c0
000000f0: 44ca 9dbd 439b 8b3e 1ab2 103f 5646 db3e
00000100: 4ca2 65c1 b19e 29c1 8095 1b3e ccf5 95be
00000110: 448b 0b3d baf3 743e 9e2a 093f a0bc c93e
00000120: 988b 31c1 9643 bac0 bf37 ee3e 1a6a 5ec1
00000130: adaa 4bbe 5908 793e f43d 21c0 438a c73e
00000140: dbb2 60be 57ba 4dc1 5424 6e3e 2a96 62c1
00000150: 13e8 153e b1dd 55bd 12b4 693e eb6f 943d
00000160: d265 373f 1135 9abd 9b6e 123f a06f f73d
00000170: fdbd bebe a3e5 8c3e 95b8 003f 912f d73e
00000180: a793 38bf 4d78 14c1 8128 32c1 acf2 d5be
00000190: 09f9 fb3d d5aa dcbf a445 fd3e 696e 1cc1
000001a0: fe5b 42c1 97ec 9e3e db20 f9c0 ed49 973e
000001b0: 0ad3 133e 56f9 96c1 5771 d83e a7de 6cc1
000001c0: 8205 213f d4a2 8d3e f7f0 043e 5dbb 9ebd
000001d0: 27e3 8ebd 8e2e 38c1 3743 c7c0 d55d 6bc0
000001e0: 8d2e 2d3f 4a21 6d3e 589e b83e af7a b53e
000001f0: ed67 c73c 799b 6d3e 676f 5f3e 8730 c73e
00000200: 22a8 18c1 40fa 32be 59cf c73e d1b7 07c1
00000210: 15fd 8dbe 212f 39c1 d14b a3c0 e09d 19c1

l3.bias f4 [17]
4.936855 -2.2174993 -2.232078 0.19052373 -1.6569788 0.4530627 -2.064116 -3.1655593
-0.14914179 0.70961267 3.2904725 -6.787928 3.408474 1.8768328 1.8641745 -3.974381
4.0968566
00000000: b7fa 9d40 82eb 0dc0 5eda 0ec0 a718 433e
00000010: e217 d4bf d6f7 e73e 7a1a 04c0 8698 4ac0
00000020: a0b8 18be 2da9 353f 1a97 5240 b536 d9c0
00000030: 7024 5a40 0f3c f03f 459d ee3f 425c 7ec0
00000040: 7319 8340
