data.pth (torch, 10154 bytes, 6 tensors)

l1.weight f4 [8, 153]
00000000: 8b4c 1b3f 0597 2f3e 9792 173f 35ce 2dbe
00000010: b573 adbe c660 02be e947 38be 1be0 293f
00000020: 5291 293f 2ff9 96bd a8a7 c03d b6a5 87be
00000030: 7fc4 1d3f ae9c edbd 2d6c 183e c141 ae3b
00000040: d833 b43f b57a dabe a4de 26bd 98c0 c6bc
00000050: 31d2 b43e 7b7c fa3e 14b1 9b3e 23d0 3ebf
00000060: ddeb b43e cf1d 193f ea9c 9c3e 36d6 c73e
00000070: 9191 6bbd ce83 893f ead3 793f 5084 83be
00000080: 1a20 f73d adf0 dd3d 308a 043f 8ef7 763d
00000090: 83f6 e73e 5660 f7bd 03fb f9bb 5582 cd3e
000000a0: 0b79 0b3f a7fa 213e 4b32 043f b1ab d2bc
000000b0: fbf1 a23e 3ec5 61bf 6bd8 6a3e 83cf 8e3e
000000c0: cac3 1ebf 9a02 09bf 1b7a 2d3d 133e 04bf
000000d0: 9c22 843e ba47 533f 6cf8 223e 6b43 7abe
000000e0: 5f86 993e b806 953d 459e 4c3e e033 b03e
000000f0: 37cb 5dbe 7927 edbe 51f7 d4bd 0337 c43d
00000100: 7c61 50bf 7e44 bdbd 7579 1f3e f383 823f
00000110: ff20 1abe 7aad 79bd e329 9c3d ddf3 053f
00000120: d434 523e e16b 13be ac57 3bbc ca31 7d3e
00000130: 70d1 d83e 28db e5be 3662 863f 3f6e 833e
00000140: 68fb 6d3f 2628 343f 9c5c 313f f9e7 2e3e
00000150: ac75 ddbc a667 553e 967d 653e 92fc 803b
00000160: a09a 8b3e ba5d fb3e d9a2 3a3f 8e97 7a3e
00000170: 3e03 acbd 7ac6 f5be e5a7 de3e 38af 793e
00000180: 715d 7dbd 5b08 293e 74d0 503e 3596 8cba
00000190: 2a01 823e 85df 84bd ea97 903d 1c8a 6f3e
000001a0: dead b9bd 7554 b73e 457d e93e 9c5b 073f
000001b0: 85db 483e 0886 e53d 81f9 2c3d 159d fe3e
000001c0: bf2a 9fbd adfc a93d 5c71 57bd e7d6 bcbe
000001d0: a9a0 18bf f53f 083f 2581 20be aec0 f13e
000001e0: a6fa d23e 5bc3 543f 1211 2f3e 90f3 fb3d
000001f0: 4e34 b13e 551f 153e a38f 303f b12d 233f
00000200: 104e 54bc ba25 ab3e 26af 093e 4d5c 93be
00000210: a7b9 b93d 6b6e 8d3d faff ab3e f070 a93e
00000220: 80c6 013f 1eb7 cd3e 7b78 a9be e069 7b3e
00000230: 55fa acbc d4d7 d1bc 1640 353c 6bc7 7f3d
00000240: 4531 bfbd 8489 353e 8d63 463e f338 d9be
00000250: 6870 b43d 0f16 313f d564 0bbe 1d82 483e
00000260: b99c 233f 290a 653f b240 163e 0167 193d
00000270: 68c4 dc3e 0679 803f e939 603e ab46 d83d
00000280: 915e 9f3f acc1 8b3e 54c4 ce3e aae1 a73d
00000290: 6827 d73e 21a0 433f c6a5 8e3e ed7e 17bd
000002a0: cef2 ff3e 614d c5bf 2e00 be3f 6a60 343e
000002b0: 81f3 103e 0fca 1e3f 76ef ab3a 38d0 d03e
000002c0: 3cbc 8a3f 41e6 873e 25db b43e 8c18 173e
000002d0: c86c 553f fdba 8c3d fe20 41be 04c1 86bd
000002e0: 3ba6 f13e aa79 9f3e f916 013e 44fc 9bbe
000002f0: e2de 9abd da70 d73d cd43 a43f 97e4 a2ba
00000300: 73bc 2d3e a2c3 f5bc ecf8 e9bc 5c3c 623d
00000310: a734 463e d3f5 95bd b84c 883f 5922 9d3e
00000320: 7a23 18be b548 8b3f bef4 983f 10d2 2a3f
00000330: 5607 313f 1bef 633e 23ca 9d3e 8ad1 84bd
00000340: 55c2 4d3f 8697 923e 8bc3 9ebc 8ad3 673c
00000350: ba4f f53e 99b0 7fbc d404 863f 182c 2f3f
00000360: 9e7c 363d a632 833f d0b4 393f a7df c4bb
00000370: d4a5 e6be 3eb2 8f3e 6023 803e 8928 243e
00000380: 8666 493e b7eb e3bd f70d 153e 5203 353d
00000390: c201 4b3e 358a d43d 8034 893f b515 85be
000003a0: f8ff b13e 36d9 83be a2be 01bf 8e85 7dbe
000003b0: 7d46 a43e 79c1 363f 1a2d 7a3e c87e 76bd
000003c0: af7f 893e a041 5b3e 78c9 173f f0b0 fb3e
000003d0: 94d9 873e 865e cf3e 6a44 943f 61bb 4abe
000003e0: 29fd 3e3e 152e 653e 7360 bcbd d124 113f
000003f0: 86cd 583f f190 ffbd e38f 673f c30c 4a3e
0.6066367 0.17147453 0.59208053 -0.16973193 -0.3387734 -0.12732229 -0.17996182 0.6635758
0.66237366 -0.07371747 0.09406978 -0.26493615 0.61627954 -0.1160215 0.14885016 0.005317897
1.4078321 -0.42671743 -0.04073967 -0.024261758 0.35316613 0.48923096 0.30408537 -0.7453634
0.353362 0.5981111 0.30588466 0.39030617 -0.05751187 1.0743349 0.9758898 -0.25686884
0.1206667 0.10836921 0.5177336 0.06029468 0.4530526 -0.120789215 -0.0076288 0.40138498
0.5448157 0.15818273 0.5163924 -0.025716634 0.3182524 -0.8819159 0.2293412 0.27892694
-0.620175 -0.53519595 0.042352777 -0.5165722 0.25807655 0.8253132 0.15915078 -0.2443978
0.2998533 0.07276672 0.1998225 0.34414577 -0.21659552 -0.46319178 -0.10398734 0.09580805
-0.8139875 -0.092415795 0.15573676 1.0196518 -0.1505165 -0.060956456 0.07625177 0.5232523
0.20527965 -0.14396621 -0.011434477 0.24726024 0.42347288 -0.44893765 1.0498722 0.2567005
0.9296174 0.7037376 0.69281936 0.17080678 -0.02703365 0.2084032 0.22411188 0.0039363587
0.27266407 0.49094945 0.72904736 0.24471876 -0.08399056 -0.48002988 0.43487468 0.24383247
-0.06185669 0.16507094 0.20392019 -0.0010725918 0.25391513 -0.064879455 0.07060225 0.23392528
-0.09066366 0.35806623 0.45603386 0.5287416 0.1961499 0.11207205 0.042230133 0.4972922
-0.07771825 0.08300147 -0.052598342 -0.36882707 -0.5962015 0.5322259 -0.15674265 0.47217315
0.41206855 0.8311059 0.17096356 0.12302315 0.34610218 0.14562733 0.6896917 0.63741595
-0.012958065 0.3342722 0.1344572 -0.28781357 0.090686135 0.06905826 0.33593732 0.33093977
0.5069351 0.4017877 -0.33099732 0.24552107 -0.021115461 -0.02561561 0.011062643 0.06244604
-0.09335569 0.1772824 0.19373913 -0.4242626 0.08810502 0.69174284 -0.13612683 0.19580884
0.63911015 0.8946863 0.14673117 0.037451748 0.43118596 1.0036933 0.21897091 0.10560354
1.2450734 0.27296197 0.4038416 0.08197339 0.42022252 0.7641621 0.2786085 -0.03698628
0.49989933 -1.5414239 1.4843805 0.17614904 0.1415539 0.62027067 0.001311763 0.40783858
1.0838695 0.26542857 0.35323444 0.14755458 0.8336911 0.06871603 -0.18860242 -0.065797836
0.47197136 0.3114751 0.1260642 -0.304659 -0.07562043 0.105195716 1.2833191 -0.0012427744
0.16966419 -0.030000512 -0.028561078 0.055233344 0.19356023 -0.07322278 1.0648413 0.30690268
-0.14857283 1.0881563 1.1949689 0.6672678 0.6915182 0.2225918 0.3081828 -0.06485279
0.8037465 0.28631228 -0.019380352 0.014149556 0.4791239 -0.015606069 1.0470223 0.68426657
0.044552438 1.0249832 0.7254152 -0.0060081067 -0.45048392 0.28065675 0.2502699 0.16031088
0.19668016 -0.111289434 0.14556108 0.04419262 0.1982489 0.103779234 1.0719147 -0.25993124
0.347656 -0.25751656 -0.5068151 -0.24757978 0.32085028 0.71388966 0.24431267 -0.0601795
0.26855227 0.21411753 0.5929179 0.4915843 0.26533186 0.40501803 1.1583378 -0.19798042
0.1865126 0.2238086 -0.09198084 0.566968 0.84688604 -0.12478817 0.9045393 0.1973143

l1.bias f4 [8]
00000000: db9d 8c3f bc53 2440 db25 bd3f 805c 3540
00000010: cb01 5e40 2983 ca3f dff3 0d40 a30c 3740
1.0985674 2.5676107 1.4777178 2.8337708 3.4688594 1.5821277 2.2180097 2.8601463

l2.weight f4 [8, 8]
00000000: 7ef5 8ebe 465c 4bbe 0f8b 8e3e a0f9 47be
00000010: 4049 72be 1e8a 4ebe d899 6dbe 0034 b7ba
00000020: cc74 a13f d7e9 6e3f c106 43be 65d1 4540
00000030: 121a 4d3f 44c1 943e a009 66bf c51a fe3f
00000040: 0ead e7bd 9f96 4640 565b 2e40 3bdb 7f3f
00000050: f0dd 2140 1ddc 3d40 44bd 4f3f a2df 4640
00000060: 16b7 43be 8482 2140 1524 69bd 7166 dc3f
00000070: 640a 1740 9862 8f3e 470a 0c40 1151 2b40
00000080: b65b 8a3f 53a4 5b3f 8fc7 5bbf b3c1 1340
00000090: 0384 b93f 71d5 0a40 194e 5940 b94e 4abe
000000a0: 6b8e 2940 0a24 1a3f 70c4 4a3f 9237 aa3f
000000b0: 2ec0 8040 f88e 113e 68fc 2040 3b55 a43f
000000c0: 0bb2 f73d 5222 443e d9a0 17bb 2b9e 4abe
000000d0: 3736 49bd 9fcf f43d 705b afbe 6fe3 4fbe
000000e0: 77bb 403f df02 9d3f 4aff 1940 4d3f 0040
000000f0: 40eb 833f cf4c 37bf 7d31 3040 6ed3 0c40
-0.2792167 -0.19859418 0.27840468 -0.19528818 -0.23660755 -0.20169875 -0.23203218 -0.0013977289
1.2613769 0.9332556 -0.19045545 3.0909054 0.80117905 0.290537 -0.89858437 1.985192
-0.113123044 3.1029432 2.7243247 0.99943894 2.529171 2.9665596 0.8114817 3.1073995
-0.1911281 2.523591 -0.056919176 1.7218763 2.3600092 0.2800491 2.1881273 2.676823
1.0809238 0.85797614 -0.8585138 2.3086975 1.4493412 2.1692774 3.3953917 -0.19756593
2.6493175 0.6021124 0.7920599 1.3298209 4.0234594 0.14214694 2.5154057 1.283851
0.12094506 0.19153717 -0.0023136644 -0.19786899 -0.04912397 0.11953663 -0.3424945 -0.20301603
0.7528605 1.2266501 2.4062066 2.0038636 1.0306168 -0.71601576 2.7530205 2.2004046

l2.bias f4 [8]
00000000: 922e 82be 26d2 ad3f b87f 133f 6e3b d63e
00000010: f2ec eb3e f433 ad3e 8e05 40be aafd 703f
-0.25426155 1.3579757 0.5761676 0.41842216 0.46079212 0.338287 -0.18752119 0.9413706

l3.weight f4 [12, 8]
00000000: 30ad ddbd 73b9 41c0 e681 e2be 7cb7 243e
00000010: db33 39c0 fa26 ddbf 31a0 1fba 450f 86bf
00000020: 6578 05be 8633 c03e 323f 14c0 32d1 46c0
00000030: ee5d ae3d db7d 2b3f 49ae 18bd 32a4 1dc0
00000040: ebf8 923e 4126 2cc0 6f4a cabe f7d6 44be
00000050: e676 02be ae42 22c0 78a1 40be 5d3e 12c0
00000060: d0bd 3dbd c835 08c0 8f8f f3bd f17f 33c0
00000070: 28ac b2bf f235 2cc0 9379 c8be 4f1f 9c3f
00000080: 5323 9e3e e099 9f3f f324 12bf cf3a 08c0
00000090: 5905 25c0 5b16 45c0 e9fe aabe 386c 183e
000000a0: e0cb 8e3d c47f 8a3f 62dd 49c0 53ea 2dc0
000000b0: 5ab8 9fbe ca9b 7ebf e084 d7bb 9c14 46bc
000000c0: 56e5 623e c35a 9cbf d930 46c0 b992 4ec0
000000d0: 39aa a83d 7920 e23e 2ff4 4dbe 6438 a53d
000000e0: 1831 8fbd 87fa e2bf 5212 07bf 5489 55c0
000000f0: 44b3 ab3d 0227 8ebe e9cf 75bd af3b d6bf
00000100: 9395 ad3e 5d63 7cbe 1432 a6bf 832a c13d
00000110: 0915 bfbf 315c fcbf 583d a7be f56c 1bc0
00000120: 16bb 213e fa9a 0f3e 68de 06bf 7b19 ebbf
00000130: db5b 4b3f e533 02c0 61b3 a3be e6dc 5dc0
00000140: 9815 0fbd 52e4 7abf 3e70 3f3f b477 4bbf
00000150: 420d 04c0 9c48 40c0 c4f3 e7bd 1c6c 02c0
00000160: 8a6a 7b3e 4fbb bcbd 5f96 32bf 6bdb 6cc0
00000170: 8c33 03c0 4ad7 dcbe 3e21 2cbe 8410 91be
-0.108240485 -3.026944 -0.4423973 0.16085619 -2.89379 -1.727752 -0.0006089239 -1.047341
-0.13034208 0.3753931 -2.3163571 -3.1065183 0.085140094 0.66988915 -0.037275586 -2.4631467
0.28705534 -2.6898348 -0.39509913 -0.19222628 -0.12740669 -2.5353198 -0.18811595 -2.2850564
-0.046323597 -2.1282825 -0.11892616 -2.804684 -1.3958788 -2.6907926 -0.39155254 1.2197055
0.30886325 1.2468834 -0.5708763 -2.1285894 -2.5784514 -3.0794895 -0.33397606 0.14885032
0.0697248 1.0820241 -3.1541371 -2.717427 -0.31195337 -0.99456465 -0.006577119 -0.012089875
0.22157797 -1.2215198 -3.0967314 -3.2277052 0.082355924 0.441654 -0.2011268 0.08067396
-0.06991786 -1.7732705 -0.5276233 -3.3365068 0.083838016 -0.27764136 -0.06001273 -1.6736964
0.3390318 -0.24647279 -1.2984033 0.094319366 -1.4928294 -1.9715635 -0.3266399 -2.4285252
0.15794024 0.14023963 -0.52683115 -1.8367151 0.79437035 -2.0344174 -0.31972793 -3.4666076
-0.034932703 -0.9800464 0.74780643 -0.7947953 -2.0633092 -3.0044317 -0.113257915 -2.0378485
0.2455236 -0.09215414 -0.697607 -3.7008922 -2.0500212 -0.43133003 -0.16809556 -0.28332913

l3.bias f4 [12]
00000000: b192 ecbe d3f3 d7be 2a9c d5be 3681 d43e
00000010: 46ba bc3e 2381 a53e 2277 babd 3c2c 89be
00000020: b568 ddbe 6c02 c3bc f869 273e 8d0d aa3e
-0.46205667 -0.4217821 -0.41720706 0.4150483 0.36860865 0.32325086 -0.09104754 -0.2679156
-0.43243948 -0.023804866 0.16349018 0.33213463
