data.pth (torch, 6442 bytes, 6 tensors)

l1.weight f4 [8, 69]
00000000: 7133 3bbe ed10 053e 95b3 c4be f933 4abd
00000010: 52fb 493e ba04 d93b aceb c5bd 2d95 64bf
00000020: 5529 393f 33e4 2bbe 0e0e 013f e2e2 713d
00000030: b0d5 ea3e 8f77 7e3d 3bd2 0fbe 71b7 07be
00000040: cd20 8d3f 9818 373e 9696 4e3d 6590 893e
00000050: f24d a33e 35b1 6abe ddad 05bf 27db 04bf
00000060: ddbf 8d3f cc0e 85be 0d21 d7bc e6a7 bd3e
00000070: f442 6ebd cc89 0c3c ee89 eebe 5637 bcbe
00000080: 81e9 c8bd 56b0 0abe 9c2a 6bbd af61 023e
00000090: 648d ae3e 3609 9a3c e6c4 323f f359 2b3f
000000a0: 4cf4 033e 67fb 6abc e1cd bbbe a6db 903d
000000b0: 350c de3e 0764 26be b81d 3cbd 0619 9c3d
000000c0: 8419 dcbd 4591 0dbe 2940 023f 78be 0ebe
000000d0: 369d 973f 1cbd e5be 8e36 743d 4682 bd3e
000000e0: 8efd 20be e698 b9be 0524 ebbd 83e8 19be
000000f0: 1462 fdbd 024e 38bf 5aff 1dbe 6c53 a73e
00000100: 5f9d 48bd 8fae ad3d 4fb8 083d 4427 ce3e
00000110: d59f cbbd e777 38be 6b26 1f3f bfd0 a0be
00000120: e5b8 823f 8282 2ebb f20e fc3d 0d82 a9be
00000130: 03c9 4d3f 51f3 323f 008b 28be 8051 4e3f
00000140: 3452 303f fd13 e7be 9041 b53e ef6e 35be
00000150: f440 563d d855 ab3d 500e 2b3f c797 2cbc
00000160: b815 cebe 0bb0 83bd 6a52 1b3e df84 20bf
00000170: ed74 20bf 9577 053e 1f6c 6dbe d972 1b3e
00000180: f689 7ebe e457 903c e2ca 52bd d7fa 09bf
00000190: 0693 39bf 65b3 f8bb c020 773b 9b87 923e
000001a0: 96c5 543f 4199 d7bd 81cb 2e3e c762 61bf
000001b0: 0283 b9be f06c 353f 6b2f a4bd 1c9d f6be
000001c0: aa63 fb3c d61c 1dbe fd60 35be eb3e 70bc
000001d0: 3299 d93e 8c0e 243d d645 1fbc f054 1dbe
000001e0: 99f9 a93d 3c5e de3d 535d 583f b546 7c3d
000001f0: 6bca 93bd 1df2 02bd 3434 e6be 418b 90bb
00000200: d1c9 35be ae37 753f 5bce 9b3f d42a 37be
00000210: 4c48 86be ef15 0f3d 50ac 473f 650b 033f
00000220: 4d03 bcbe bff4 023f 722d 413e d1bf 9fbc
00000230: f05d c73e 765d 0b3f d5ca 993e 59d9 aebc
00000240: 7e69 ad3e 9b8f 153f 25d8 c5bd dca0 933e
00000250: 0269 863f 95e4 103f ff2e 03be 55fa 82be
00000260: 03f6 d23e 8d35 5e3d 483e 1fbe 2f90 1c3f
00000270: 6757 bb3d af9c 37be a4ee 813c c1a2 1c3b
00000280: a6a8 093f 73f7 363f 671b 84bd dc86 db3e
00000290: 63bd 813d 224e afbd 599d 0a3e 93ae 7c3e
000002a0: 100d 043f 27fb 013f f39b fb3d 3566 4f3e
000002b0: 0790 bb3d 98da 96be 1674 26be 0b16 093e
000002c0: 6901 4dbf 6615 ebbe 6fb9 113f b083 d6be
000002d0: 419c 103f 378d 13be 996e 11be 1588 fb3e
000002e0: a380 22be f305 38be 001e 883e d2e5 a2bd
000002f0: 65e0 8fbe 1ec3 75be 9c0d 1fbb 36c9 863f
00000300: d568 cbbe edbb 14be 3679 e8be 3e0c 103f
00000310: ed0e 77be b8ab e33e c16e 453f 4e29 073f
00000320: 2b17 873e 95bb 7bbe 9550 45bd 2915 69be
00000330: a58a 46be e5d5 8fbe 92a1 463f 17d2 833e
00000340: 797d d23c a36a cf3e e6c2 d03e 78ea 063f
00000350: 1476 6f3e 658d b63e b149 3b3f da5c 53be
00000360: 766c e13e d452 443f 3859 ebbe 7c1b 133f
00000370: 3b1e 233e 7f15 e83e 1f85 803e 0211 933d
00000380: ec0a fdbe 5efd 743e 6168 873e 25ca ec3e
00000390: 01a2 bc3e 1ced 013f 0453 173f 7909 88bd
000003a0: 738c e53e 9f2e 2b3e 3e11 c53e f00f 1a3e
000003b0: d06c 363e 83d1 81be abdd 353f 1bab 083e
000003c0: c2ae b13d faad 4d3e fa13 fc3b de13 983e
000003d0: b230 253e ec71 d43e b98c f13e 6ffd 07bf
000003e0: 7353 ad3e a3c3 c5be ff16 113e 81b6 9a3e
000003f0: 03e1 b03e 3d95 113e f12a 333e 1ed3 b03d
-0.18281342 0.12994738 -0.3841826 -0.04936597 0.19724777 0.006622878 -0.096640915 -0.89290124
0.7232869 -0.1678627 0.5041207 0.059054263 0.45866156 0.06212574 -0.1404504 -0.13253571
1.1025635 0.17880476 0.05043658 0.26867977 0.31895405 -0.22919162 -0.5221842 -0.518969
1.1074177 -0.25987852 -0.026260877 0.3704216 -0.05816932 0.008577775 -0.46589607 -0.36760968
-0.09810162 -0.1354383 -0.057413682 0.12732576 0.34092247 0.01880322 0.69831693 0.66934127
0.1288616 -0.014342166 -0.3668051 0.070731446 0.43368688 -0.16249095 -0.04592678 0.0762196
-0.10747054 -0.13824947 0.5087915 -0.13939846 1.1844852 -0.44870842 0.05962234 0.37013453
-0.15721723 -0.36249465 -0.114814796 -0.15030102 -0.123722225 -0.7199403 -0.1542944 0.32680833
-0.048978206 0.0848056 0.033378895 0.40264332 -0.09942595 -0.18014489 0.62167996 -0.3140926
1.0212675 -0.0026628082 0.12307538 -0.33107033 0.80384845 0.6990252 -0.16459274 0.8059311
0.6887543 -0.45132437 0.35401583 -0.17718099 0.052308038 0.08365983 0.66818714 -0.010534233
-0.40250945 -0.06430062 0.15168157 -0.62702745 -0.62678415 0.13033898 -0.23185776 0.1518053
-0.24857315 0.017620035 -0.051463015 -0.53898376 -0.72489965 -0.007589745 0.003770873 0.28619084
0.8311399 -0.10527278 0.17069818 -0.8804135 -0.36232764 0.7086935 -0.08016857 -0.4816674
0.030687172 -0.15343031 -0.1771278 -0.014663438 0.4249969 0.040052935 -0.00972124 -0.15364432
0.0829956 0.108578175 0.845174 0.06159087 -0.072163425 -0.03196918 -0.44961703 -0.0044111316
-0.17752768 0.95788085 1.217235 -0.17887431 -0.26227033 0.034933027 0.77997303 0.5118926
-0.36721268 0.511547 0.18864992 -0.019500645 0.38938856 0.54439485 0.3003756 -0.021343874
0.33869547 0.5842225 -0.09660367 0.28833663 1.0500796 0.5659879 -0.12810896 -0.25581613
0.41203317 0.05425029 -0.15551102 0.61157507 0.0914753 -0.17930864 0.015860863 0.002390072
0.5377296 0.7147133 -0.06450539 0.42876327 0.06334951 -0.085598245 0.13536586 0.2467597
0.5158243 0.50773853 0.12285604 0.20253833 0.091583304 -0.2946365 -0.16255221 0.13387315
-0.80080277 -0.45914763 0.56923574 -0.41897345 0.56488425 -0.14409338 -0.14202346 0.4912726
-0.15869384 -0.1797102 0.26585388 -0.07953991 -0.28100887 -0.24000213 -0.0024269586 1.0530155
-0.39728418 -0.14524813 -0.45404977 0.5626868 -0.24126787 0.44466949 0.7712212 0.527974
0.26384863 -0.24583276 -0.048172552 -0.22761978 -0.19388826 -0.28092876 0.77590287 0.25746223
0.025694596 0.40511045 0.40773696 0.5270152 0.23384887 0.3565475 0.7315932 -0.20640889
0.44028062 0.76688886 -0.45966506 0.5746381 0.15929501 0.453289 0.25101563 0.07180978
-0.49422395 0.23924777 0.26446822 0.46247974 0.3684235 0.50752425 0.59111047 -0.06642432
0.44833717 0.16717003 0.38489717 0.15045142 0.17814946 -0.25355157 0.71041363 0.13346522
0.086759105 0.20085898 0.007692811 0.29702657 0.16131857 0.41493165 0.47177675 -0.53121084
0.3385273 -0.3862582 0.14168929 0.30217364 0.3454667 0.14217086 0.1749685 0.086340174

l1.bias f4 [8]
00000000: cef8 1f3f 79b6 1f3f ef58 663f efeb 5a3f
00000010: 0dee fe3e 921b 753f e2ef 033f 755d 1f3f
0.6248902 0.62387806 0.8997945 0.85516256 0.49790993 0.95745194 0.5153791 0.6225198

l2.weight f4 [8, 8]
00000000: 71a7 75bf c2e6 c33f 2c26 643f 8685 89bd
00000010: 6d9d 323f fef6 58be f846 2e3f 5097 da3e
00000020: e76e 89bf 9232 24bf 184b 4a3f 984f 243f
00000030: 6992 d63f 030c f93e f0b6 183e 4783 253e
00000040: 3adb c23f 9d35 d0bc 89b7 82bf 23b5 bc3f
00000050: 217d c0be 704c 703f 7b51 8d3f ba60 9a3f
00000060: 0617 f43e 2484 49be dd72 a53f dd48 833e
00000070: 0910 93bf dbfe b23f 5d81 febe a626 8e3d
00000080: df40 6bbe 64bc b53f 7639 8d3f af09 8a3f
00000090: d154 863e 6a65 fd3e 7026 a3bf 1e4b 9dbf
000000a0: c0a7 8dbe e2bb 50be c477 61be f02e 36bd
000000b0: 16d5 0e3e d067 80be 509a 1abd 8049 003e
000000c0: e002 39be e365 d53c 591b d8be d50b 273e
000000d0: bff9 71bd 0de4 ff3d c31a 2e3d b3c3 cbbc
000000e0: b86b 88be 8997 30bf 4884 b73e 0cdc 833f
000000f0: 8b65 b1bc be8d 743f dcab 6d3f 81e0 783f
-0.9595862 1.5304797 0.89120746 -0.06714921 0.6977146 -0.2118797 0.6807704 0.42693567
-1.073697 -0.64139664 0.79020834 0.6418395 1.6763431 0.48641977 0.14913535 0.1616336
1.5223153 -0.02541619 -1.021226 1.4742779 -0.37595466 0.93866634 1.1040491 1.2060769
0.47673815 -0.19679314 1.2925678 0.25641528 -1.1489269 1.3984026 -0.4970807 0.06940965
-0.22973965 1.4198117 1.1033161 1.0784205 0.26236585 0.49491435 -1.2746105 -1.2288549
-0.27667046 -0.20384172 -0.22018343 -0.044478357 0.13948473 -0.25079203 -0.03774482 0.12528038
-0.18067503 0.02604956 -0.42208365 0.16313107 -0.059076067 0.12494669 0.04250599 -0.02487359
-0.26644683 -0.68981224 0.3584311 1.0301528 -0.021654865 0.9552878 0.9284036 0.97217566

l2.bias f4 [8]
00000000: 43db e1be 1248 5cbe 879d 3d3f 7d30 3c3d
00000010: af5c 8d3f e02f a3bd 3118 78be 29ea 1cbe
-0.44112596 -0.21511868 0.7406849 0.04594468 1.104391 -0.07968116 -0.24227978 -0.153237

l3.weight f4 [12, 8]
00000000: 24da c6bf 49f9 b1bf 57c7 3c3f 7be1 4e3f
00000010: d9ae 21bf f387 8c3e 852b 72be 0de0 acbf
00000020: 5df3 06bf bfea 96bf c27f fe3d 5d7a bcbf
00000030: 6486 053f 6080 f53d 465b f9bd a8e0 44bf
00000040: 52a2 793e 69cf eebf 26fb 243f 5bbc debf
00000050: 0a9c c4bf f8c4 bbbd fb64 13be 6fba a73e
00000060: 1637 f53c 473e e2bf 871e 5ebe 1da3 223e
00000070: bd5b 0bbd b853 88bd 63a7 1bbe f31d a03e
00000080: 40d2 243f 5cb0 03c0 74fb bbbf 8fa1 d6bf
00000090: 123f 073f 7035 14be f974 e9bd 05d6 2bbf
000000a0: 58ad f1be a645 9cbf fcb6 073d abc8 aabf
000000b0: b624 1c3f b0d8 aabc 9b65 5ebe f712 80bf
000000c0: 3cf1 6d3e ea47 263e a136 64bc 444e 6abf
000000d0: 89af 83bf 3853 383d 301d d4bd c313 213f
000000e0: 35b7 d8bf 4567 98bf edd6 093f a50f a43e
000000f0: bf07 a1bf f031 303d 5560 adbe 2e19 213f
00000100: 3279 353e 43d5 433f c09b aebf 1672 adbf
00000110: 20f2 14bf 831b 9f3e 7762 42be 32fc 633e
00000120: 9ea3 e03e ed60 bf3d ec78 b3bf 16cf efbe
00000130: bcdc 833d d3cc 91be 7ff5 97be d12b 56bf
00000140: a685 bbbf 645c d23e e367 eebe 9f44 503f
00000150: cf9b 873e d8ad e33d 2fc8 93bd b5d9 1d3d
00000160: 2076 11bd 9747 d9bf aeae 95bf e48f 1d3f
00000170: fb90 bf3e 5958 84be b848 0abe 2048 1abf
-1.5535321 -1.3904201 0.7374167 0.80812806 -0.6315742 0.2744747 -0.23649414 -1.3505875
-0.5271509 -1.1790389 0.124267116 -1.4724842 0.5215819 0.11987376 -0.12175612 -0.769053
0.24378327 -1.8657047 0.6444572 -1.7401232 -1.5360119 -0.09168428 -0.1439399 0.32759425
0.029933494 -1.7675256 -0.21691333 0.15882535 -0.034023035 -0.06656593 -0.15200572 0.3127285
0.64383316 -2.0576391 -1.4686112 -1.6768054 0.5283061 -0.1447351 -0.11399264 -0.6712344
-0.47202563 -1.2208755 0.033133492 -1.3342489 0.60993516 -0.020855278 -0.21718447 -1.0005788
0.23236555 0.1623837 -0.01392904 -0.91525674 -1.0287944 0.04500124 -0.103571296 0.6292078
-1.693091 -1.1906515 0.53843576 0.32043186 -1.2580489 0.043016374 -0.33862558 0.62929046
0.17722014 0.76497287 -1.3641281 -1.3550441 -0.58181953 0.31075677 -0.18982874 0.22264174
0.4387483 0.09344659 -1.4021277 -0.46837682 0.06438586 -0.2847658 -0.29679486 -0.8366061
-1.4650161 0.41086113 -0.46563634 0.8135471 0.2648606 0.111171424 -0.07215916 0.0385377
-0.035513043 -1.6974972 -1.1693933 0.61547685 0.374153 -0.25848654 -0.13504303 -0.60266304

l3.bias f4 [12]
00000000: 2adf 833e d522 063f d3d5 723e e0d5 0cbf
00000010: 3bac 103e 1357 8f3e 0beb 9dbe cc57 553c
00000020: 6157 113a badd 65be 6125 133e 151c 12bf
0.25756198 0.523969 0.2371438 -0.5501385 0.141282 0.2799612 -0.30843386 0.013021421
0.00055443315 -0.22447863 0.14369728 -0.570741
