data.pth (torch, 15530 bytes, 6 tensors)

l1.weight f4 [8, 264]
00000000: b464 4b3e 8042 43be 760c 4a3d 716e e2be
00000010: c4ce 78bd 0a2d 9dbe b433 2bbe 63df 4abe
00000020: 566e f33d 3661 c2be 7687 b13d 9cf2 ccbd
00000030: 3994 9b3c 86fc 0f3e 87df 8dbe 9840 323f
00000040: ce76 763e 42a2 313e 06db 213e a11d 5f3f
00000050: 676b 283e c0b6 e43e 74a2 293f ca0d 383d
00000060: 1f23 17bb 4792 433e f184 f0bd a766 0ac0
00000070: d52f 73be 7efb 523e cceb 70be 7701 cabe
00000080: 952a 5fbd 925a 24bd b299 9cbd ab38 4bbe
00000090: 8919 fe3d a7b7 2f3e eba7 973e 9654 adbd
000000a0: b449 e5bc 7e80 70bd 9fc9 983c 6d71 1f3f
000000b0: 119b 7b3f 96e4 ff3e a849 bc3e bd5c 8abd
000000c0: 9411 42bf c6ae aabd fe9b 87be dc51 b73f
000000d0: 087d c13d d479 223f 6ebd bfbd cfb9 6bbd
000000e0: 8d26 a93e 0d0e 573e 27b0 06be 93a7 3e3e
000000f0: b52a 59be dad7 35bf d7cd fe3e 6a8b 59bb
00000100: 7511 613c 91d9 423e 7ce0 66be b81a 6e3d
00000110: 3e98 b6be 8c1c cdbe b258 693d 6a9f 33bd
00000120: aee9 543b a0d5 40bd 1fba 823f 7c8e eebc
00000130: 31d3 7a3f 9cec 1140 b067 c1be 1980 0d3e
00000140: 4329 043e a85a 063e 4656 533e d431 52bb
00000150: ce76 a7bd 4ffb 533e 3c12 35bf 0b95 15bf
00000160: 5276 ed3d 489c d4be fc93 85bd 4dc6 9c3d
00000170: 6b0a 3c3e 76b7 2e3e b61b 5bbf 09b0 bebd
00000180: c20d 9a3f 52d8 173f 9b3c 863f 1e08 593e
00000190: 536c e83c d991 60bd 8bbf 553d 1716 ae3c
000001a0: d071 0f40 82ff b2bc 9353 00be 5db5 c43e
000001b0: 3a31 a33f 346d 17be 7b50 1fbf f917 0b3f
000001c0: 8c16 4e3f d273 873f d40b 55be c252 30be
000001d0: 9590 da3e 18b9 7dbe 2b16 7ebf 607e 583f
000001e0: 3c9d 183f e283 b0bd 484c 013f b905 81be
000001f0: 6044 813b 8c3c 2bbe 4c20 a4bd d165 e4bd
00000200: 38d9 bf3f 4c85 433d 0976 d8bd b654 883d
00000210: d139 1f3d e686 98be a1e4 d9be c10f d33f
00000220: 94a7 b4be ecb0 66be e7ee 32be 5ee6 693e
00000230: eda4 eebe f878 193e 7e50 a4bd b7ea 73be
00000240: 2ffa 3cbe 58e0 373e 184e 3e3e 0687 5cbd
00000250: 45d0 a6be b0fb 573f 8e0e 9ebe d3d6 413f
00000260: b470 0d3f 07d7 1d3e bcd7 f8bb a7f5 ce3f
00000270: ee76 0c40 60a3 863d 1d0e 613f c35f 5a3f
00000280: 0438 853e 6316 62bd e251 5c3f 68fe 6dbf
00000290: e83a 9e3d dfd0 173c 39bc 30be a76a 57bd
000002a0: 92b9 923e 0183 553f 519d 58bd 6378 123e
000002b0: 4d5a 0240 2242 53be a156 b1bd fdc6 fdbb
000002c0: cb36 0fbf 08f9 29bd e2e0 60be 1eb3 3cbd
000002d0: 49bc cdbd ed1d 673b 42da 18bd 27b8 a73f
000002e0: 0366 4d3f f042 0d3e 909d 71be 62c8 04be
000002f0: e4f4 a93f 1b2d 9b3f edd0 8e3e dd64 0a3e
00000300: 0e42 923d 388a 293c 3751 b33b 0f4a 99be
00000310: 6c1c 73be 1f59 883c 82bc 3bbd 31a8 d1bd
00000320: 366b 683f 1c8a 3e3f 1ca0 74be 4e41 52be
00000330: 4ed2 633f 4117 25bf f9e4 073e e947 8e3d
00000340: 7301 973e a23e 80bf c41c 26bd 9e59 323e
00000350: 318d 9cbd 7771 acbe d3d5 a7bd bdbd 71bc
00000360: 4563 c1bd 7a6b f6be c0cf 31be 4838 783f
00000370: 1e6e f6bd 5e10 b0be 19d9 b9be 438b 20be
00000380: 70c5 d0bd 713d 323f 9428 dc3d b331 f03e
00000390: 24f6 b0bb ff7e 75be 6dab a8bd df23 87be
000003a0: 6bb8 c33c 623e b83f 8af5 853f aa6c 62be
000003b0: 7316 cd3f 27c0 c93e 8aef 93be 9641 aabd
000003c0: 09dc a03f c0b0 66bd f52c d8be f0bd d03e
000003d0: 678b 85be 6188 2e3e 19bf a03d 6ac2 99bd
000003e0: ccd9 0a3e 7668 233f f4ac 92be 4fd5 173c
000003f0: 1268 d33e 8421 1d3f 2912 a6be 8367 4d3c
0.19862634 -0.19068336 0.04932829 -0.44224885 -0.060744062 -0.30698425 -0.16718942 -0.19811778
0.11886279 -0.3796479 0.08668415 -0.100072116 0.018991577 0.14061174 -0.277096 0.6962981
0.24068758 0.17347053 0.15806207 0.87154585 0.1644722 0.44670677 0.6626351 0.044935025
-0.0023061705 0.19098769 -0.117441066 -2.1625154 -0.23748715 0.20603749 -0.2352745 -0.39454243
-0.05448397 -0.040125437 -0.076465026 -0.19845836 0.12407214 0.17159902 0.296203 -0.08463399
-0.027989246 -0.05871629 0.018650828 0.6228245 0.9828349 0.49979085 0.36774945 -0.0675597
-0.7580807 -0.08334117 -0.264862 1.4321856 0.09447676 0.63467145 -0.09362303 -0.057550248
0.33037224 0.21001454 -0.13153134 0.18618612 -0.21207698 -0.7103249 0.49766418 -0.003319467
0.013737072 0.19028307 -0.22546571 0.05813095 -0.35663027 -0.40060842 0.056969352 -0.0438532
0.0032487917 -0.04707873 1.021305 -0.029120676 0.979785 2.2800665 -0.3777442 0.13818397
0.12906365 0.1312052 0.2063838 -0.0032073157 -0.08176957 0.20701335 -0.7073095 -0.58430547
0.115948334 -0.41525483 -0.065223664 0.0765501 0.18363349 0.17062172 -0.8558916 -0.0931092
1.2035449 0.59314454 1.0487245 0.21194503 0.028371966 -0.05482659 0.052184623 0.021250768
2.2413216 -0.021850351 -0.12531881 0.3841962 1.2749398 -0.14787751 -0.6223218 0.54333454
0.80503154 1.058222 -0.20805293 -0.1721907 0.42688432 -0.24777639 -0.99252576 0.8456783
0.5961492 -0.08618905 0.5050702 -0.2519968 0.0039449185 -0.16722316 -0.08013973 -0.111522324
1.4988165 0.047734544 -0.105693884 0.06656782 0.038873497 -0.2979042 -0.42557243 1.6489183
-0.35284102 -0.22528428 -0.17473947 0.22841784 -0.46610203 0.14987552 -0.08023165 -0.23820005
-0.18454812 0.17956674 0.18584478 -0.053839706 -0.32580772 0.8436842 -0.3087048 0.7571842
0.55250096 0.15414058 -0.007594077 1.6168717 2.194759 0.0657413 0.8791216 0.8530237
0.260193 -0.05519713 0.86062443 -0.9296632 0.07726079 0.009266107 -0.17259301 -0.052591946
0.28657204 0.8340302 -0.052884404 0.14303736 2.0367615 -0.20630696 -0.08659101 -0.0077446685
-0.5594298 -0.04149726 -0.21960786 -0.046069257 -0.10045678 0.003526564 -0.037317522 1.3103074
0.8023378 0.13795066 -0.23595262 -0.12967065 1.327786 1.212314 0.27893773 0.13515039
0.07141505 0.010347895 0.005472328 -0.29939315 -0.23741311 0.016644059 -0.045834072 -0.10237158
0.9078859 0.7442949 -0.23889202 -0.20532724 0.88992774 -0.6448861 0.1327094 0.069473095
0.29493293 -1.0019114 -0.040554777 0.17416999 -0.076441176 -0.33680317 -0.081950806 -0.01475471
-0.09442762 -0.48128873 -0.17364407 0.9696088 -0.12032722 -0.34387487 -0.36298445 -0.15678124
-0.10193908 0.69625 0.10749927 0.46912917 -0.005400436 -0.23974226 -0.08235822 -0.26394555
0.023891648 1.4394038 1.0465558 -0.22111765 1.6022476 0.39404413 -0.2889369 -0.08313291
1.2567149 -0.056320906 -0.422218 0.4076991 -0.26082918 0.17044212 0.07848949 -0.07507785
0.13559645 0.6383127 -0.28647578 0.009267165 0.41290337 0.61379266 -0.3243573 0.012536886

l1.bias f4 [8]
00000000: 8195 b7be 84fe 263e d3ea 883e 55af 5bbc
00000010: c0eb 9a3d 9c7d 083d 66dd 623e 1f04 763e
-0.3585625 0.16308028 0.26741657 -0.013408502 0.07564497 0.033322915 0.2215477 0.2402501

l2.weight f4 [8, 8]
00000000: b4d2 bf40 158b 3cbe f1c5 303d a28c f93e
00000010: f8a4 2c40 b1d5 10bd 4208 043e 02bf e3bc
00000020: 50d9 5440 e807 babc c906 e4ba d5c9 48bd
00000030: 35fb 213f a44e 113e 6cee ad40 47cc b9bd
00000040: 67dc 97be 2f14 cdbe 7c0e 593e 3661 0940
00000050: 89d5 323f 972f 8b40 95e9 92bf 9fc2 1dbf
00000060: 9905 2f3e 6d1a 3140 c6a0 40bc 8c1f 9a40
00000070: 7d68 a9be 917f 223e 28ec e8bc 3e3c 43bc
00000080: ca6d f1bc 0cfc 92be e26b 863f 9e93 013d
00000090: fd5e ae3e 79b5 0340 4f4c d93b eae6 cc3b
000000a0: 3b01 12be 170a 12bd 9986 a240 3ef2 c2bd
000000b0: 40b5 a33e bdee d23b 005d 7f3e 97bd 8340
000000c0: 68ec 2b3c cc24 75bc 8f3a 653f 03ca e5bd
000000d0: 0d31 0abf b715 16c0 6521 ff3e 2ac4 0441
000000e0: 58bb 163f 1e19 da40 9751 24bc ddb4 b4be
000000f0: 584e 87bf 2924 2ac0 3aef 7fbe 5fcf c6bc
5.9944706 -0.1841243 0.04315752 0.48740107 2.697569 -0.035360042 0.12893775 -0.02780104
3.3257637 -0.022708848 -0.0017397042 -0.049020607 0.63273937 0.14190155 5.435354 -0.09072166
-0.2966034 -0.4005446 0.21196932 2.1465583 0.6985708 4.3495593 -1.1477534 -0.61625093
0.17091979 2.767238 -0.011757081 4.816351 -0.3308753 0.15868975 -0.02843292 -0.011916218
-0.029471297 -0.28707922 1.0501673 0.03163492 0.34056845 2.0579512 0.006631411 0.006253113
-0.14258282 -0.035654154 5.0789304 -0.0951886 0.3197422 0.006437151 0.2493782 4.1168933
0.010493375 -0.014962386 0.8954248 -0.11220171 -0.53981096 -2.3450754 0.49830166 8.297892
0.58879614 6.815566 -0.010029218 -0.35294238 -1.0570784 -2.658457 -0.24993601 -0.024268804

l2.bias f4 [8]
00000000: 209c 66be 9782 1fbf 757b 313e 936d 9bbe
00000010: 4d80 afbf dc84 52be 35cb ba3e e88b b23e
-0.22520494 -0.6230864 0.17332251 -0.30357036 -1.3711029 -0.20558494 0.3648316 0.34872365

l3.weight f4 [15, 8]
00000000: 3496 fcc0 4e50 b1be 3407 19c1 292f cfbe
00000010: 63f2 e1c0 6d44 05bd 45fd a33e b887 fc3e
00000020: 6aeb 04c1 fffd 35bf 9097 d03e 95aa c43e
00000030: f65e b43e 8241 c3c0 bd29 0bbf 88a3 cbbe
00000040: 5ed6 fb3d b6fd 2ac1 2578 d93e ba08 0b3f
00000050: cb68 9a3e 3ba9 d9c0 2662 97c0 d811 333f
00000060: 6314 c63e aa54 cb3e 1ce4 e03e 4ae2 033f
00000070: 2535 ba3e c6b4 8f3e 1124 53be 6d61 ebbf
00000080: ba8a 1cc1 5fcc 67c1 7de2 88bf 055f 6abe
00000090: ed52 a13e 9fd1 a03e 4b61 e23e ba62 173f
000000a0: 4cdc 103e 20f6 2fbf d26f 9d3e 9fa1 abc0
000000b0: d5f6 f83d c076 713e 593e 55bf 3224 39c0
000000c0: 9b4c f7be 8e08 25c1 3823 c03e 4110 8ec0
000000d0: 230d de3e 6884 a73e 5b53 e03e 35a5 86c0
000000e0: 5f12 89c0 9fce 023f 88c3 89bf 8b4a cac0
000000f0: 9e27 05bf 3e68 9f3e 7bb3 eb3e 3632 38c0
00000100: 1524 d03e ff45 0b3f 22da c5bf 2be8 e83e
00000110: 6b85 cbc0 e7cb dfc0 78db b2be 9322 293f
00000120: 3f41 e13e a5eb 1b3f 132d c73e 4fb4 033f
00000130: 6aca 813e 64f3 9ebd 9cf8 08c0 6170 cd3e
00000140: a45c 053e e609 29c1 af7d 883e 1154 da3e
00000150: 3bff c5c0 4e2f 543e 7b8b 943e ff8f 023f
00000160: 1bf4 a93e 020c 263f b1b3 08c0 9d60 b3c0
00000170: 985a fec0 6502 923e da84 e03e 45ed 273d
00000180: e631 663d 5a2d 17c1 5b6c 2b3e 2ce7 8c3e
00000190: a784 ddc0 f010 f7c0 8a2a cac0 822c a9c0
000001a0: 17b1 b83e f02a ed3e 8521 1f3d 1f9a a9c0
000001b0: 993d dac0 138a b0be e17a 11c0 a022 cabf
000001c0: 42d3 f0c0 0147 2dc1 c893 f8bf 2731 9fc0
000001d0: 3dec cac0 d5b6 05c1 901c 3fbf e8ef 8d3c
-7.8933353 -0.3463158 -9.564259 -0.40465668 -7.060838 -0.03253596 0.32029167 0.49322295
-8.307474 -0.7109069 0.40740633 0.38411394 0.352287 -6.1017466 -0.5436056 -0.39773202
0.12296747 -10.686941 0.42474476 0.5431019 0.30158076 -6.801908 -4.730731 0.699491
0.3868743 0.3971303 0.43924034 0.51517165 0.3636867 0.28067607 -0.20619227 -1.8389107
-9.783869 -14.487395 -1.0694119 -0.2288781 0.3150858 0.31409928 0.44214854 0.5913502
0.14146537 -0.6873493 0.30749375 -5.363479 0.121564545 0.23580456 -0.8329826 -2.8928342
-0.48300633 -10.314589 0.3752687 -4.439484 0.43369398 0.32718205 0.43813595 -4.207667
-4.2834926 0.5109653 -1.0762796 -6.3215995 -0.52013576 0.31134218 0.4603537 -2.8780646
0.40652528 0.5440368 -1.5457194 0.4548963 -6.3600364 -6.9936404 -0.34933066 0.6606838
0.4399509 0.6090644 0.38901576 0.51447004 0.25349742 -0.07761267 -2.140174 0.401248
0.13023621 -10.564917 0.2665839 0.42642263 -6.187406 0.2072117 0.29012665 0.5100097
0.3319405 0.6486207 -2.1359675 -5.6055436 -7.948559 0.28517452 0.43851358 0.040997762
0.05619993 -9.448572 0.16740553 0.2752012 -6.922443 -7.7208176 -6.3176928 -5.286683
0.3607261 0.4632182 0.038850326 -5.3000636 -6.8200192 -0.34480342 -2.273125 -1.5791817
-7.5257883 -10.829835 -1.9420099 -4.97475 -6.3413377 -8.357137 -0.7465296 0.01732631

l3.bias f4 [15]
00000000: 1e38 3540 2131 dd3e 054d 85bf e66e a3c0
00000010: c23e 91bf ae45 243f e989 dcbf 63a4 fcbe
00000020: ec15 043d 6774 82c0 a229 43bf 89ed dabf
00000030: 6a9b 6b40 ec05 9c3f 26f6 8340
2.8315501 0.43201545 -1.041413 -5.1072874 -1.1347277 0.6416882 -1.7229587 -0.49344167
0.03224747 -4.0767093 -0.762354 -1.710374 3.6813607 1.2189307 4.1237974
