data.pth (torch, 4074 bytes, 6 tensors)

l1.weight f4 [8, 27]
000000 f7 22 24 bd e3 10 5f bc 1d 11 ed bd db 62 65 3e
       -0.040072408 -0.013614866 -0.1157553 0.22400992
000010 7b 09 3c 3a 33 26 ee 3b 48 2e c3 3e 1d 90 d9 bd
       0.00071730436 0.0072677373 0.38121247 -0.106231906
000020 2e 04 d4 3e d3 8d a2 3d 3b e0 71 bd f0 1f 79 bd
       0.4140944 0.07937207 -0.059051733 -0.060821474
000030 fa dc 8a be 6b 6e ba 3e e5 67 b4 bd 47 1d 0d bc
       -0.27121717 0.36412367 -0.08808879 -0.008612937
000040 01 cb 93 3e 01 20 cb 3e b8 2e 21 be b3 4c 56 3e
       0.28865817 0.39672855 -0.15740478 0.20927696
000050 07 65 ac 3e 80 8b 19 be 18 ca 65 3d 67 87 b6 3d
       0.33670828 -0.14994621 0.056100935 0.08912545
000060 68 4b d3 3d 97 b0 ee 3d 5c 5b 50 be d2 eb 29 be
       0.10317117 0.116547756 -0.20347351 -0.16593865
000070 17 e6 33 be 58 29 93 bd 43 3c 30 be 9e 05 83 3d
       -0.17568241 -0.0718562 -0.17210488 0.06397556
000080 69 b8 03 3e e0 72 05 bd db 52 c8 bb 94 f4 9c 3d
       0.12863316 -0.032580256 -0.0061133928 0.07663837
000090 62 8d 0b be 74 8f 0f 3e 78 38 24 be b0 0a e0 3c
       -0.13628152 0.14019567 -0.16037166 0.027348846
0000a0 20 d9 14 be 76 29 e8 3d 88 80 df bc 1e d5 ab 3d
       -0.14535952 0.11336033 -0.027282968 0.08390258
0000b0 8e 89 c5 bc 2d bd 53 3d 9c 23 8c bd 7c fd e7 3d
       -0.024113443 0.051694084 -0.068427294 0.11327645
0000c0 b1 e6 b4 3d c5 4e c6 bd f8 be b8 bc 38 f0 f0 bc
       0.088330634 -0.09682993 -0.022551998 -0.02941142
0000d0 96 0a 94 3d b4 82 66 bd b2 2a 84 3c 7b 2b a0 be
       0.072285816 -0.056276992 0.01613364 -0.31283173
0000e0 da 6a 18 be 20 75 85 3e f4 9f f8 3b da 85 06 be
       -0.1488451 0.26065922 0.0075874273 -0.13136998
0000f0 71 4a 56 3e b4 41 96 bc 77 e3 45 3e bb 2f 94 3e
       0.20926835 -0.018341877 0.19325052 0.28942665
000100 d4 69 53 be 34 76 53 be 17 fb 1d be 79 fc b9 3e
       -0.20645839 -0.2065056 -0.15427814 0.36325434
000110 b2 15 6c bd 03 30 8c 3e 09 d0 fa 3e e1 b8 b6 3e
       -0.057637878 0.2738038 0.48986843 0.35687926
000120 28 43 97 3a dc b8 45 3e 69 79 8c 3e 18 97 54 be
       0.00115404 0.193088 0.2743638 -0.20760763
000130 85 4e 97 3a b6 5d 9f ba da b2 e0 3e 18 45 d8 3e
       0.0011543786 -0.0012158665 0.43886453 0.42240214
000140 c0 5f ca bd 49 b9 f5 3d 95 e7 a5 bd 51 10 21 be
       -0.09881544 0.11998231 -0.081008114 -0.1572888
000150 ad a4 a5 3e de 20 c5 bd de b6 59 be 1c 09 c2 3e
       0.323522 -0.096254095 -0.21261165 0.37897575
000160 7f 53 24 be 2f 3a 76 3e a7 56 d7 3e 8f 98 0f be
       -0.16047476 0.24045633 0.42058298 -0.1402304
000170 82 b1 0f be 5e 91 ae be ef cc e8 3e 34 5d 29 be
       -0.14032558 -0.3409528 0.45468852 -0.1653946
000180 bc 04 88 3e 23 c6 f3 3e 7a 58 a7 3e bf 4d 24 be
       0.26566112 0.47612104 0.3268469 -0.16045283
000190 30 01 05 3f df 9d 07 3f 8d aa a5 3c 3f b9 43 be
       0.51954937 0.5297527 0.020222927 -0.19113635
0001a0 ff 50 24 be a7 12 8f 3e db 5f b2 3e 50 ec 4e 3d
       -0.16046523 0.27943918 0.34838757 0.050518334
0001b0 5c 2c 19 be 9f e7 35 be 18 db b3 3c fd 1d a9 3e
       -0.14958328 -0.17764138 0.021955058 0.33030692
0001c0 d2 98 bd bd d8 93 5b bc 00 33 92 3e 78 6f 7d bd
       -0.09257664 -0.013401948 0.28554535 -0.061873883
0001d0 07 47 cd 3e 87 7f ed 3e 6e 48 06 be a3 a7 a1 bd
       0.40093252 0.46386358 -0.13113567 -0.07893302
0001e0 ff 25 6d be 18 e5 22 3e 6b a2 ce bd 83 c9 bd 3e
       -0.23159026 0.15907705 -0.100895725 0.37067804
0001f0 dd 69 a6 3e c4 89 fa 3d 54 1f 25 3d 68 c5 f9 3e
       0.32502642 0.12233308 0.04031308 0.48783422
000200 3d aa 2e 3e aa b4 0e be 53 8a 77 3d 05 1d 77 3d
       0.17057128 -0.13936105 0.06043465 0.06033041
000210 51 f0 80 3d e1 16 ae 3e f8 59 cc bd 4f 77 99 3e
       0.06295837 0.3400183 -0.09978098 0.29973838
000220 f8 76 72 3e 80 b3 a7 3e 5a 26 1e 3d 91 92 c8 3e
       0.23678195 0.32754135 0.038610794 0.3917432
000230 a2 4e 33 3e 6e fc 8f bd 8b 09 b2 3e b2 37 a4 be
       0.17510465 -0.07030569 0.34772906 -0.32073742
000240 76 2b 03 bd 5f c9 c0 3e ff ff df 3e 10 2c 5c 3e
       -0.03202387 0.37653634 0.43749997 0.21501184
000250 13 09 ee bd fc ad 1b 3e ad fc 73 bd f6 5f 88 be
       -0.116228245 0.15203089 -0.059567142 -0.26635712
000260 e6 a0 d9 bb 06 c9 a3 3e c2 fd 92 be 38 97 d1 bc
       -0.006641495 0.31989306 -0.28709227 -0.025584802
000270 c7 9f de 3e 0f fb 09 3e a4 39 c3 3e f6 94 98 be
       0.43481275 0.13474678 0.38129914 -0.29801148
000280 92 51 6b be 65 12 64 3d 0a 38 d4 3d 49 d7 ca be
       -0.22980335 0.055681605 0.10362251 -0.39617375
000290 be a6 66 bd 68 43 86 3e 18 d1 81 bc 82 3d 77 be
       -0.05631136 0.26223302 -0.015846774 -0.24144557
0002a0 ff 7b 71 3e 36 91 28 be 11 c9 07 3e 19 bd 86 3e
       0.23582457 -0.16461644 0.13260294 0.26316145
0002b0 05 ba 65 be 7a bf 65 be b5 e9 a2 bd 3c 9c 41 3e
       -0.22434242 -0.22436324 -0.07954732 0.18907255
0002c0 40 0f 2c be b4 04 9a 3e 05 fa 95 3e 87 e3 d3 3e
       -0.16802692 0.30081713 0.29292312 0.41384527
0002d0 03 79 d9 bd ef 42 11 3e f0 92 28 3e 2f fb f1 bd
       -0.10618784 0.1418569 0.16462302 -0.118154876
0002e0 57 7a d9 bd b5 e1 d7 bd 97 fc dd 3d ea 7a 01 3e
       -0.106190376 -0.10541097 0.10839193 0.12644544
0002f0 32 a3 90 bd 4a 72 ff bd cd 62 fe bd 1a d4 92 bd
       -0.07062377 -0.12472971 -0.124211885 -0.071693614
000300 f6 0c 93 3d 99 40 0b 3e 91 bb da bd 4b 57 54 3c
       0.071802065 0.13598861 -0.10680307 0.012960265
000310 f0 05 63 3d 01 58 13 3e 58 b3 ce bd 4f 8a cf bd
       0.055425584 0.1438904 -0.10092801 -0.10133802
000320 60 a0 d4 3b 8e c0 bb 3d 22 18 12 be f7 97 a8 bd
       0.0064888448 0.09167586 -0.14267018 -0.0823211
000330 40 61 88 bd 9a 70 bc 3d d7 85 c0 3d 61 ab 44 3e
       -0.06659174 0.092011645 0.09400528 0.19206001
000340 c2 c7 08 be 7c 67 58 bd 60 a7 22 bc 76 9b f8 3d
       -0.13357452 -0.052833065 -0.009927601 0.12139027
000350 76 df ea 3d cf 17 26 3b d6 e8 f2 bd 81 86 3b 3e
       0.11468403 0.002534378 -0.11860816 0.18313028

l1.bias f4 [8]
000000 8c 21 79 3d 76 84 2a be 7b 68 53 3e 69 98 0f 3e
       0.06082301 -0.16652092 0.20645325 0.14022984
000010 ac a3 a1 3d 15 99 06 3f dc b9 65 3e 76 6d 51 be
       0.07892546 0.52577335 0.22434181 -0.20451912

l2.weight f4 [8, 8]
000000 29 bb eb be de e3 b1 3e 9d b8 8c be bb 89 d3 bd
       -0.4604123 0.3474416 -0.274846 -0.103290044
000010 ce bf c0 3c bc 59 37 3f 31 1c c4 bd 89 4b 00 3d
       0.02352896 0.716213 -0.095756896 0.031322036
000020 df 3d e6 3e ae 19 56 be 03 63 f4 3e 40 28 62 3f
       0.4496908 -0.20908234 0.4773179 0.88342667
000030 12 7d ca 3e c5 f3 a8 be a1 97 db 3e 54 9a 83 be
       0.39548546 -0.3299848 0.4288912 -0.2570368
000040 8d b5 08 3f d9 5e b4 3e 1e 0e 4a 3f 9c bd 92 3f
       0.53402025 0.35228613 0.7892779 1.1464114
000050 eb 2e 87 3e b2 eb 05 be 3e 46 14 3f 0e 67 b8 3e
       0.26402983 -0.13078192 0.5791968 0.36016124
000060 a3 2b 8d bd ec 03 15 bd 08 26 b0 bd 96 45 26 be
       -0.06893089 -0.036380693 -0.08601004 -0.16237482
000070 45 5a 8a bd 37 6a 53 3f 1d 42 f2 bd 02 b1 87 3e
       -0.06755499 0.82583946 -0.11829016 0.26502234
000080 15 15 16 3e f9 20 7b 3e ab 98 7e be 82 8b 18 be
       0.1465648 0.24524297 -0.24862926 -0.14896968
000090 67 ed d5 be 3d a8 85 3f 51 d1 58 bb 58 fb fb 3d
       -0.41782686 1.0441967 -0.0033083747 0.123037994
0000a0 d0 13 0b 3f d1 21 d2 bd 4e c5 e7 3e 94 b2 99 3e
       0.54327106 -0.10260356 0.4526772 0.30019057
0000b0 7b d5 1d 3f e9 9c 98 be e0 7d 2b 3f 02 77 95 be
       0.6165387 -0.29807213 0.66988945 -0.29192358
0000c0 a7 53 b8 be 29 5a a1 be 68 f2 d6 bd b6 14 84 3d
       -0.36001322 -0.315141 -0.10495454 0.06449263
0000d0 28 bc 3f be c1 8c 56 3f e1 dd 16 be 36 c7 8a 3e
       -0.1872412 0.83808523 -0.14733078 0.2710511
0000e0 00 7b b9 3d 9f d4 92 3e c9 2a 3d 3e 3b cf ee 3e
       0.090566635 0.28677842 0.18473352 0.4664248
0000f0 71 4f f0 3e f6 ee 08 bf 10 8c 24 3f 57 4e 9a be
       0.4693561 -0.53489625 0.6427622 -0.30137894

l2.bias f4 [8]
000000 8b 02 1c 3f 0d a6 f3 3d 41 3c a6 3d 44 f4 bb 3e
       0.6094138 0.11896906 0.08116961 0.36709797
000010 f6 51 d1 3e b0 f1 e1 3d dc db fc 3e 29 92 76 3e
       0.40882844 0.11032426 0.4938649 0.24079193

l3.weight f4 [2, 8]
000000 81 5d 06 bf 4e e1 2f 3f 2e 58 b4 3d 18 b1 24 bf
       -0.52486426 0.6870316 0.088058814 -0.64332724
000010 0d 69 93 bf 19 f3 f8 3e 76 6c 4a bf ed 3f ca 3e
       -1.1516434 0.4862297 -0.7907175 0.39501897
000020 6b a6 d9 3e 5f bb 1e bf a1 ba cf be 61 da 55 3f
       0.4250978 -0.62004656 -0.40572074 0.83536345
000030 01 1b 87 3f 77 f2 08 bf 4f 09 0d 3f 12 22 bc be
       1.0555116 -0.5349497 0.5509233 -0.36744744

l3.bias f4 [2]
000000 04 73 c9 bd 4f b6 8e 3e
       -0.098363906 0.27873465
