data.pth (torch, 16490 bytes, 6 tensors)

l1.weight f4 [8, 283]
000000 bb 53 c6 3d 5c 88 b6 bd b7 f2 ad bd bc d3 23 3e
       0.09683939 -0.08912727 -0.0849356 0.15998739
000010 34 8a a4 bd 7c d5 15 3f a7 f3 ab be 62 81 60 be
       -0.08034173 0.58528876 -0.3358433 -0.21924356
000020 73 1e 00 3e a0 04 08 3e fa ce dc 3d df f8 10 be
       0.12511615 0.13283014 0.10781665 -0.14157437
000030 8b d9 52 bf 56 aa 3e bd 02 8f 87 bd a7 7b e5 3d
       -0.82363194 -0.046549164 -0.066190735 0.112052254
000040 3b a3 ab bc 9d 24 31 3c 41 b7 d4 bd 90 8a 84 bd
       -0.020951858 0.010811952 -0.103865154 -0.06471741
000050 52 b6 17 bd 3f 4f 1d 3f eb 91 b8 bd 8c b3 ac bc
       -0.03703911 0.61449045 -0.09012207 -0.021081708
000060 d7 bd c1 bc b7 b8 2e 3d 4d 48 d9 bc f2 b5 52 3d
       -0.023650093 0.042656627 -0.026523734 0.051443048
000070 95 77 20 be 00 91 6f 3c 07 a0 15 3f d1 ab 10 bf
       -0.15670617 0.014621973 0.5844731 -0.5651217
000080 29 41 98 ba e9 60 5e 3e df f1 ca bb 63 34 cf be
       -0.0011616099 0.21716656 -0.006193384 -0.40469655
000090 76 ed 69 3c 7c d2 e3 3c e1 7b 49 3d 7a 4c a1 bd
       0.0142778065 0.027810328 0.049190406 -0.07875915
0000a0 07 f2 20 be 3b 79 78 bd 6b c2 d9 bf 3c 1c ae bf
       -0.15717326 -0.06066249 -1.7012457 -1.3602366
0000b0 9c 2c b0 bd d1 36 22 3d 9e 5a 11 bd 35 01 63 ba
       -0.086022586 0.03960306 -0.03548681 -0.00086595427
0000c0 8b 31 28 bf fc e6 fc 3a 98 3f 3e bd 7a 61 6c bd
       -0.65700597 0.0019294913 -0.046447366 -0.05771015
0000d0 93 82 1a 3f 83 d0 c4 be 81 cb ab 3e bd 96 62 3f
       0.6035549 -0.38440332 0.335537 0.8851126
0000e0 c2 86 0d bd 18 c4 35 b9 03 a4 75 bf 35 36 c3 3d
       -0.034552343 -0.00017334556 -0.9595339 0.095318235
0000f0 cf 1d 35 3d 5d 76 11 be 72 6e 91 bd ab 0b c7 bc
       0.04421788 -0.14205308 -0.07101144 -0.024297556
000100 81 b2 35 be c1 61 d1 bc 8f 7f 09 3e 27 a7 d9 3c
       -0.17743875 -0.025559308 0.13427566 0.026568962
000110 bd cf c9 be a2 35 21 bd e3 56 69 3e 60 11 7b be
       -0.39416304 -0.03935779 0.22787051 -0.24518347
000120 c4 db 33 bd b8 9a 7d 3f 20 7d 91 bc 9e 52 93 bd
       -0.043910757 0.9906421 -0.01775986 -0.07193492
000130 12 b0 d9 3c ce fd c8 3d 03 0e 4f be 14 ab 13 be
       0.026573215 0.098140344 -0.20220189 -0.1442073
000140 4f c6 8e 3d 55 81 19 bd 6a 0e cb bc 54 14 89 3e
       0.06971418 -0.037476856 -0.024787147 0.26773322
000150 d8 4d ad bc 2c b5 a6 3f a7 b5 7c 3f 62 fb 96 bd
       -0.021155283 1.3024039 0.9871468 -0.07372166
000160 9d a3 87 bd 16 6a c4 bd 9a 65 1a be 30 98 c6 bd
       -0.06623004 -0.09590547 -0.1507782 -0.09696996
000170 10 40 63 be 10 07 87 bd 6e a8 a6 be 40 cc b9 bd
       -0.22192407 -0.06593144 -0.32550377 -0.09072161
000180 6e e1 f0 be b0 a5 8c bd a4 8e 1b bf 43 a0 13 bd
       -0.4704699 -0.0686754 -0.6076453 -0.03604151
000190 1d e9 73 bd e9 4c 94 bd 4e 52 93 bd 86 01 a6 bd
       -0.059548486 -0.07241232 -0.07193433 -0.08105759
0001a0 77 08 b5 bd 79 46 9e bd 5d 1a 8f bf 23 35 db bd
       -0.08839505 -0.07728285 -1.117992 -0.107034944
0001b0 48 36 ea bd 9e cd 36 be 07 90 07 3e aa 38 69 3c
       -0.114361346 -0.17851874 0.13238536 0.014234701
0001c0 a0 59 23 bd a2 2b a3 3f 78 41 85 3e ea ba 28 bd
       -0.039880395 1.2747691 0.2602651 -0.04119388
0001d0 87 bf 1a be 80 2c 22 be 97 9f 24 3e 9b c8 a2 be
       -0.15112124 -0.15837288 0.16076504 -0.31793675
0001e0 35 f0 ac bd 5a 33 04 be 40 32 0f bf 88 71 b5 be
       -0.08444253 -0.12910214 -0.5593605 -0.3543818
0001f0 4c fa c3 3d f5 ef 46 be 68 bb 5c bd 4c af 84 bd
       0.09569225 -0.19427474 -0.053889662 -0.06478748
000200 ad 24 92 3c b9 15 31 bd 35 f2 93 be 05 90 fd bd
       0.017839754 -0.043233607 -0.28895727 -0.12380985
000210 1b 9f ea be d1 b7 bb 3e a2 ca f5 bb 01 ca 49 bd
       -0.45824513 0.36663678 -0.0075009624 -0.04926491
000220 9e 3b 49 bd 9f 96 11 bf 28 a7 5e bd b7 24 04 be
       -0.04912912 -0.56870455 -0.05435863 -0.1290463
000230 bf 61 28 3e 41 74 92 be f9 4a d3 bc f8 74 ec bd
       0.16443537 -0.2860432 -0.025792586 -0.115457475
000240 30 b6 29 3b d9 e0 35 be 6c 51 32 3f db 41 a7 bd
       0.0025895946 -0.17761554 0.6965549 -0.08166858
000250 1f 91 2f 3e 7f 67 74 3e df 72 80 bd ca ff 2d bc
       0.17145203 0.23867606 -0.0627191 -0.010620067
000260 b2 80 94 3b b2 73 91 bd 1d 8d ad 3d ce 84 f7 bd
       0.0045319432 -0.07102145 0.08474181 -0.12085877
000270 bd 39 57 be a3 4f d5 bd dc 40 ad bc 05 d4 58 be
       -0.21018119 -0.1041558 -0.021149091 -0.21174629
000280 e3 e6 f1 3c d6 d3 a3 be e1 eb c4 3e da 66 96 be
       0.02952904 -0.31997555 0.3846121 -0.29375345
000290 d7 22 ff be d7 0c 8d be a3 68 ba 3d a9 af fe be
       -0.49831268 -0.2754886 0.09101989 -0.49743393
0002a0 df c9 2a 3f 30 f4 93 3f 8d cd d7 bd fe a2 42 3e
       0.6671428 1.1558895 -0.105372526 0.19007489
0002b0 9d 22 12 3f e4 bf a4 bd 97 1b 70 3a 59 c9 b8 be
       0.57084066 -0.08044413 0.00091593846 -0.36091116
0002c0 69 87 b3 bd ee bb 62 bd f1 24 dc bd 3d ae ba be
       -0.08766062 -0.055355005 -0.107492335 -0.36461058
0002d0 d5 d1 50 bd 93 05 34 be aa 16 4d bd 36 25 a0 be
       -0.05098136 -0.17580251 -0.050070442 -0.3127839
0002e0 4d 83 ad bd 59 c6 1b 3d c7 7d f5 3b 8a 59 53 be
       -0.08472309 0.038030956 0.0074918005 -0.20639625
0002f0 72 4c 12 bf bd 6e 83 be 65 6c 61 be 04 da 0e be
       -0.57147896 -0.25670424 -0.22014005 -0.13950354
000300 be 39 53 3f 18 ae 7d 3c 2b 8b 09 3d 72 30 23 3d
       0.8250998 0.015483402 0.033579987 0.039841123
000310 58 82 93 bd 76 1d 37 be 63 9e af bd a7 e6 0b be
       -0.072025955 -0.17882332 -0.08575132 -0.13662206
000320 81 f6 9e bd d7 06 72 be 26 49 4e 40 7c d9 ad 3d
       -0.07761861 -0.23635422 3.2232146 0.084887475
000330 48 39 0e 3e 02 82 01 be 9f ab f2 3d 09 73 8d bd
       0.13889039 -0.1264725 0.118491404 -0.06906707
000340 d7 b5 0f be a4 9f 91 3c a0 6f 31 3c 46 4a 18 be
       -0.1403421 0.017776318 0.010829836 -0.14872083
000350 4e f1 69 3e eb c6 6a 3e d6 34 1d bd ca 90 97 3e
       0.22845957 0.22927444 -0.038380466 0.29602653
000360 1c 78 86 bc 00 e3 ee bb 9c a0 1a be 42 2a 68 3e
       -0.016414694 -0.007290244 -0.1510033 0.2267237
000370 11 43 8c bd e8 77 f0 3a 50 4e 34 3d 01 5f 8c bd
       -0.068487294 0.0018346282 0.044019997 -0.06854058
000380 39 2c 90 be 32 99 19 3f 4c b9 a3 bb 01 3b fe 3d
       -0.2815874 0.5999938 -0.0049964543 0.12413598
000390 be dc 0d be fa 14 6d bc f3 b1 d7 bf 73 8c 8a bc
       -0.13853738 -0.014470333 -1.6851181 -0.016912675
0003a0 74 a3 8c 3e 1b d3 32 3c be c2 0b be 70 89 fd bd
       0.27468455 0.010914589 -0.13648507 -0.1237973
0003b0 f6 e0 0a bf f6 0f 9e bd a7 6b 75 3d 0f bd 8a be
       -0.54249513 -0.07717888 0.05991712 -0.27097365
0003c0 cb 79 ac 3e 07 24 8e be a6 a2 f2 bd d6 48 50 be
       0.3368667 -0.27761862 -0.11847429 -0.20340285
0003d0 f7 d1 42 3b d3 59 4d bd f8 f7 13 be 7b 52 48 be
       0.00297272 -0.05013449 -0.14450061 -0.19562714
0003e0 2c 03 f7 bf 48 d7 a7 bf 7b c4 1f 3d 36 d9 0d be
       -1.9297843 -1.3112574 0.039005738 -0.1385239
0003f0 c0 b8 53 be 84 d3 aa 3d 29 54 69 bd 96 82 29 bd
       -0.20675945 0.08341125 -0.056965027 -0.041384302

l1.bias f4 [8]
000000 10 39 40 3d 6c c9 c1 3e c7 b4 92 3e 82 50 cc bd
       0.04692942 0.37848985 0.28653547 -0.09976293
000010 b1 81 34 be 93 3a 48 be 45 28 88 3e 01 bd 99 3e
       -0.17627598 -0.19553594 0.26593223 0.3002701

l2.weight f4 [8, 8]
000000 4e 1e c3 3e 25 8d 6e bd 5a 22 9e bb 74 14 d7 3f
       0.38109058 -0.058240075 -0.0048258724 1.6803117
000010 c2 93 ea 40 94 ef ab 3d 40 88 42 3f 0b 70 dc 3f
       7.330537 0.08395305 0.7598915 1.7221693
000020 e8 b2 d0 bd 41 02 07 41 f2 bc 0d bd b6 ba ac 3f
       -0.10190374 8.43805 -0.03460402 1.349448
000030 9a 6b 3c be 90 08 d6 bd 7a fe 1b 3d 25 61 92 bd
       -0.18400422 -0.10450852 0.038084485 -0.07147435
000040 d9 24 4d 3e 6b c6 01 3f 26 14 18 bf a2 12 7a 40
       0.20033588 0.50693387 -0.59405744 3.9073873
000050 13 e9 aa be eb ad da 40 4a ee ca 3c cd c7 6b bf
       -0.33380947 6.83373 0.024771828 -0.92101747
000060 3c a1 05 40 0f 6b 87 bc 62 c2 20 3e ca e2 bd bd
       2.087966 -0.016530542 0.15699151 -0.09271772
000070 0b 3b 05 3f 60 83 0c bd 79 38 14 3f 87 fc ed 40
       0.5204322 -0.034304976 0.5789867 7.437076
000080 37 56 71 40 0a 36 58 be 93 ed 44 40 9e f1 bd be
       3.7708871 -0.21114364 3.0770004 -0.37098402
000090 99 6f 66 bc 9b 2e 67 3e cd b7 3a be b5 4d 94 3d
       -0.014064693 0.22576372 -0.18234177 0.07241384
0000a0 c0 0c 33 3f 23 7e cd 3e 6d 17 0d 41 91 ae 1f 3f
       0.6994133 0.40135297 8.818219 0.6237574
0000b0 15 c6 0d be 80 7e 2f bc 19 6b 04 bd fd b6 b1 3f
       -0.13845094 -0.010711312 -0.0323287 1.3883969
0000c0 25 d1 1a c0 ea c4 84 3e ef 73 2d bd df 97 bf bd
       -2.4190152 0.25931484 -0.04234689 -0.09355139
0000d0 c7 e4 1e 3f df 2a 80 bd ce 30 13 41 6c 29 87 be
       0.62067837 -0.06258177 9.199415 -0.2639879
0000e0 51 e2 b1 3f a3 ae de be 53 8b c7 bd 2f 6d 02 40
       1.3897191 -0.43492612 -0.09743371 2.037914
0000f0 24 bd 9c 3f ac ad 3f 40 21 2b 3f bf ff 33 b6 be
       1.2245221 2.994975 -0.74675184 -0.35586545

l2.bias f4 [8]
000000 04 ac cb bf bd ed f1 3c d8 fd 77 3d 54 69 5f bf
       -1.591187 0.029532308 0.06054482 -0.8727009
000010 8a bc 86 bf 3e e3 0c bf 45 44 a8 bd 32 97 51 be
       -1.0526288 -0.55034244 -0.082161464 -0.20467833

l3.weight f4 [15, 8]
000000 b6 c8 42 c1 34 af 64 bd cf 29 28 c1 87 b5 a9 3e
       -12.174002 -0.05583115 -10.510207 0.33146307
000010 74 d8 3e c1 7e 59 6c 3e 59 a9 e3 3e 67 e8 7a c1
       -11.927845 0.23081014 0.4446514 -15.681739
000020 f0 26 fa c0 53 0f 26 c1 82 c2 aa c0 f3 93 34 c1
       -7.817253 -10.378741 -5.3362436 -11.28612
000030 59 33 30 3d ad e7 ef 3e 1e 57 77 c0 a3 79 77 c1
       0.04301772 0.46856442 -3.8646922 -15.467196
000040 b8 5d 05 c1 6b 46 53 c0 23 d8 1c 3f bf fa 8a be
       -8.335381 -3.301173 0.612673 -0.2714443
000050 75 0b 56 3e 9f 2a 34 c0 94 75 96 c0 39 18 a9 3e
       0.20902808 -2.8151014 -4.701853 0.33026293
000060 2a c0 00 bf 1a c2 ec bf 3f 6d 5b c0 53 47 b9 be
       -0.5029322 -1.8496735 -3.4285429 -0.3618723
000070 ac 07 6d c1 58 f4 60 c1 27 c0 1b 3f c1 82 75 c1
       -14.814373 -14.059654 0.60840076 -15.344422
000080 0d 39 03 3f 83 f7 ee 3e 93 ff 16 3f 7f 78 08 3f
       0.5125893 0.4667321 0.58983725 0.5330886
000090 4e de b6 3e 8c cf 0a 3f 65 1f cd 3d 19 50 95 3e
       0.3571648 0.5422294 0.10015754 0.29162672
0000a0 13 20 f9 3e 5c 3f 1e 3f d6 18 1e 3f e0 6e e0 3e
       0.48657283 0.6181543 0.61756647 0.4383459
0000b0 a7 0a f9 3d bb c7 e3 3e 8d d0 a8 bf 89 fe a9 3e
       0.12160235 0.4448832 -1.3188645 0.33202007
0000c0 0a e8 02 3f 60 c3 40 c0 9f 9e 27 c0 d7 ef 05 3f
       0.51135314 -3.0119247 -2.6190565 0.5231909
0000d0 1f bd 1a c1 d6 33 d4 3e 59 de 2d 3f 49 34 47 3d
       -9.671172 0.41445798 0.679174 0.048633847
0000e0 9f 33 cc bd b3 98 06 3f ff d2 ed bf 1c 00 e7 3e
       -0.099707834 0.5257675 -1.8580016 0.4511727
0000f0 42 42 a3 3e 23 76 0b 3f d4 12 70 c0 d2 fe 1b c0
       0.31886488 0.5447714 -3.7511492 -2.437428
000100 1f 33 40 bd 02 bc 1f 3f e3 1a 02 3f b2 58 43 c1
       -0.046923753 0.6239625 0.50822276 -12.209154
000110 2b 9b 01 3e c8 cc 05 3f b4 bb 17 3f b5 80 79 be
       0.12656848 0.52265596 0.5927079 -0.24365504
000120 17 5b fc c0 80 0c a5 c0 57 d7 77 bd d0 64 e6 3e
       -7.8861194 -5.157776 -0.0605081 0.4499879
000130 2c 3c be 3e 4f 73 0e 3f dc 0d 22 c0 8c 5d 33 3d
       0.37155282 0.55644697 -2.532096 0.043790385
000140 3b f4 1b 3e 05 6a a6 c1 96 ec 23 c1 ad 0a 83 bd
       0.15229885 -20.801767 -10.24526 -0.063985206
000150 e4 ac a5 bf 2a df f1 c0 2a ea b8 bf 9b 04 e3 be
       -1.2943387 -7.5584917 -1.4446461 -0.4433945
000160 3f fd 1d c1 c6 be ef 3e fb 71 13 3f cf 0e 8c c1
       -9.874328 0.46825236 0.57595795 -17.50723
000170 c7 b3 37 c1 d4 10 02 3e 40 3f cd c0 37 30 3f 3e
       -11.481391 0.12701732 -6.413971 0.18670736
000180 bc 80 61 c1 56 0d 04 3f c3 64 a7 3e 5e a2 ca bf
       -14.093929 0.5158285 0.32694063 -1.58308
000190 df 70 66 c1 f3 d6 0e c1 45 bb 1c 3f d6 1c 7b c0
       -14.402556 -8.927478 0.6122325 -3.923635
0001a0 5e 08 cd 3e 5a 2d 63 bc 57 20 1c 3f 23 1b 01 c1
       0.40045446 -0.013865793 0.60986847 -8.069125
0001b0 36 c7 62 c1 f3 e1 81 c0 af fb 80 3e 3d e9 95 3e
       -14.1736355 -4.0588317 0.2519202 0.2927951
0001c0 3d f7 f3 c0 40 8c 7c c1 e2 85 da 3e 6a 00 e0 c0
       -7.6239305 -15.784241 0.4268027 -7.0000505
0001d0 c2 7f 85 bf 75 4f 56 c1 f8 40 02 c1 89 60 20 3d
       -1.0429614 -13.394399 -8.1408615 0.039154563

l3.bias f4 [15]
000000 7c de 48 40 2f aa 56 40 9f 8f 01 3d 23 7f 39 40
       3.1385794 3.3541372 0.03163111 2.8983848
000010 fd 4b d7 c0 2f b5 b0 c0 36 51 44 c0 c5 f9 99 bf
       -6.728026 -5.522117 -3.0674567 -1.2029349
000020 5c a9 b8 bf d0 ab 12 c0 bc aa 3a 40 90 46 73 3f
       -1.4426684 -2.2917366 2.9166708 0.95029545
000030 b0 6d 04 40 50 4f 2b 3d 5a ac 25 40
       2.0691948 0.041823685 2.5886445
