data.pth (torch, 11178 bytes, 6 tensors)

l1.weight f4 [8, 176]
0.1742812 0.02680297 -0.10742424 -0.13700372 0.19618103 0.4550274 0.43903163 -0.2565273
-0.10617244 -0.2915951 -0.03848014 -0.21199514 -0.0856553 -0.20961916 0.38881156 -0.04831838
0.96157205 -0.10325244 -0.73254895 0.35006282 -0.18930191 0.1305642 -0.013850803 -0.10729601
-0.2228386 -0.091318116 0.10166358 -0.04132902 0.22542001 0.2410411 -0.20827644 0.15032892
0.2569294 -1.0019252 -0.2750503 0.19549449 -0.031392053 0.011440827 -0.52559984 -0.20321783
-0.16030864 -0.074746594 -0.044164628 -0.1218191 -0.2369724 -0.11067132 -0.011753314 -0.07629677
-0.071911 -0.020263083 -0.09799117 -0.1582112 0.11794474 -0.2042066 -0.23382202 -0.11912289
3.2915041 1.8848363 -0.16397277 0.4479563 -0.015480408 -0.48362365 -0.034789257 0.1613634
-0.19006425 -0.25112292 -0.054122616 -0.16865635 -0.15357725 0.27106833 1.2023901 -0.38229954
-0.16270873 3.4862206 0.5327323 -0.071895674 -0.049112067 -0.5070746 -0.19454664 0.1847625
0.11158302 -0.08751002 -0.21666548 -0.11779949 0.045297883 -0.02518951 -0.06397268 -0.115677714
-0.06130635 0.54071635 -0.6597137 0.18233773 -0.10562749 -0.2316483 -0.62383074 -0.04769658
1.4876589 0.08125257 -0.1947122 -0.005904361 0.21835744 -0.11890432 -0.43957654 -0.4868973
-0.036537424 0.1430238 0.11098246 -0.041592445 -0.088035494 -0.06898683 0.01594284 -0.08728416
-0.4408272 1.7491525 -0.12657687 -0.19193219 -0.1161957 -0.002866528 0.17869943 -0.11490777
0.17736645 0.18615249 -0.07534266 -0.27179873 0.26239777 0.13409129 0.6742504 -0.055217247
-0.12349388 -0.56036204 -0.10781335 -0.643134 0.36044136 -0.2243567 -0.2500762 -0.008709088
0.41215473 -0.06470194 0.1464378 -0.09670056 -0.12513499 -0.6835221 3.1500163 0.34840277
0.2308385 0.0009540167 -0.26070884 1.5246079 -0.108286135 -0.2168946 -0.1403251 1.886793
0.6909452 0.8437917 -0.13745134 -0.14087011 -0.28815365 -0.03728382 -0.03728077 1.9822662
-0.33570623 0.031703442 -0.10702175 -0.09232812 -0.18106195 0.0054390174 -0.64187956 0.25253445
-0.16122846 -0.10520221 0.4063057 -0.1128198 -0.028503785 0.14588398 -0.11703291 -0.18765469
0.114138134 0.16914728 -0.20335218 1.0578738 2.053242 4.878501 -0.048761524 -0.111095265
0.15032914 0.21907872 0.19781391 -0.06908118 -0.16527936 -0.0061060865 0.31862703 -0.06728473
0.39837417 0.022836655 -0.71242994 -0.012311651 0.24390343 0.06664704 -0.095454924 -0.055638596
-0.5427631 0.5483437 -0.0063882414 0.050999872 0.0084768385 0.21594991 -0.0056461804 -0.12908436
-0.01090564 1.1198906 0.6832912 -0.17431816 0.044156294 -0.28249297 0.12471885 -0.03669417
0.33705184 0.100068904 -0.097885616 0.009448377 0.36275113 0.71287584 0.042010553 -0.033755988
0.3448458 0.048040744 0.41823187 -0.18343636 -0.44448268 0.5361687 -0.097645 -0.10887491
1.5148538 1.3650862 -0.6780097 2.0991147 0.10904728 1.0527025 -0.07976992 0.14830717
-0.14383563 0.21572438 -0.22532192 -0.0023461974 -0.08008133 -0.40129763 0.33524123 -0.11856596
0.15413992 1.4005668 2.316028 -0.09907283 0.076919116 0.87799317 0.18425564 -0.17384751
00000000: c576 323e e791 db3c 3d01 dcbd b44a 0cbe
00000010: aee3 483e 5af9 e83e c1c8 e03e 8c57 83be
00000020: f070 d9bd f44b 95be 5a9d 1dbd 4115 59be
00000030: 0c6c afbd 68a6 56be 4f12 c73e 7ee9 45bd
00000040: 9629 763f 0476 d3bd 5488 3bbf 6f3b b33e
00000050: 5cd8 41be 9fb2 053e 7aee 62bc 03be dbbd
00000060: cd2f 64be fe04 bbbd ff34 d03d 9e48 29bd
00000070: 81d4 663e 7ad3 763e 6b46 55be d3ef 193e
00000080: 408c 833e 163f 80bf 65d3 8cbe b52f 483e
00000090: f494 00bd 4e72 3b3c b68d 06bf 5618 50be
000000a0: f327 24be be14 99bd f8e5 34bd 4b7c f9bd
000000b0: e5a8 72be a5a7 e2bd f990 40bc 7b41 9cbd
000000c0: 1346 93bd c4fe a5bc 98af c8bd 1e02 22be
000000d0: 038d f13d 891b 51be 0a6f 6fbe b4f6 f3bd
000000e0: 01a8 5240 5142 f13f 7ae8 27be 875a e53e
000000f0: 8aa1 7dbc 859d f7be 2e7f 0ebd 723c 253e
00000100: 34a0 42be 2f93 80be adaf 5dbd 40b4 2cbe
00000110: 5b43 1dbe 78c9 8a3e ebe7 993f c4bc c3be
00000120: 1e9d 26be 3d1e 5f40 2561 083f 0a3e 93bd
00000130: bc29 49bd a4cf 01bf 3c37 47be 6132 3d3e
00000140: a385 e43d 7438 b3bd 8edd 5dbe dc40 f1bd
00000150: 468a 393d 3b5a cebc 1c04 83bd 70e8 ecbd
00000160: 5e1c 7bbd 636c 0a3f ffe2 28bf beb6 3a3e
00000170: 3a53 d8bd 3635 6dbe 5fb3 1fbf 7d5d 43bd
00000180: 9b6b be3f bf67 a63d a362 47be 5f79 c1bb
00000190: 1899 5f3e 1c84 f3bd 2d10 e1be 9a4a f9be
000001a0: 44a8 15bd d574 123e c64a e33d d75c 2abd
000001b0: f44b b4bd f848 8dbd 8f9a 823c 0ac2 b2bd
000001c0: 1ab4 e1be 3be4 df3f 5e9d 01be df89 44be
000001d0: 03f8 edbd 5cdc 3bbb fcfc 363e c454 ebbd
000001e0: 8d9f 353e c29e 3e3e 414d 9abd 3429 8bbe
000001f0: 0059 863e 3a4f 093e ad9b 2c3f 7b2b 62bd
00000200: 5cea fcbd e373 0fbf 3fcd dcbd 6ea4 24bf
00000210: c58b b83e c3bd 65be fd09 80be 90b0 0ebc
00000220: f205 d33e 7382 84bd caf3 153e f10a c6bd
00000230: 6323 00be 4efb 2ebf de99 4940 d961 b23e
00000240: ee60 6c3e fa16 7a3a a17b 85be 5a26 c33f
00000250: 1fc5 ddbd 9e19 5ebe 62b1 0fbe 6f82 f13f
00000260: c9e1 303f bc02 583f 0bc0 0cbe 4140 10be
00000270: e088 93be ebb6 18bd b8b3 18bd e6ba fd3f
00000280: b0e1 abbe 78db 013d 382e dbbd 8616 bdbd
00000290: 4e68 39be c939 b23b 3852 24bf 324c 813e
000002a0: 1319 25be 4274 d7bd 4d07 d03e 110e e7bd
000002b0: c580 e9bc 9c62 153e f3ae efbd 8d28 40be
000002c0: 41c1 e93d f234 2d3e 8e3b 50be 6968 873f
000002d0: 5168 0340 ae1c 9c40 2aba 47bd ea85 e3bd
000002e0: e2ef 193e 2c56 603e bb8f 4a3e 6f7a 8dbd
000002f0: fe3e 29be 9115 c8bb 1523 a33e 94cc 89bd
00000300: b3f7 cb3e f013 bb3c cf61 36bf cfb6 49bc
00000310: d2c1 793e 3e7e 883d df7d c3bd 4ce5 63bd
00000320: 86f2 0abf 4160 0c3f 7454 d1bb 3ee5 503d
00000330: 70e2 0a3c f921 5d3e 9803 b9bb b12e 04be
00000340: 92ad 32bc 9358 8f3f 2cec 2e3f 7680 32be
00000350: 3bdd 343d eba2 90be 996c ff3d a04c 16bd
00000360: 0f92 ac3e edf0 cc3d 4178 c8bd 5ecd 1a3c
00000370: 84ba b93e 087f 363f 4213 2c3d b843 0abd
00000380: a18f b03e 5fc6 443d 7d22 d63e bed6 3bbe
00000390: 3c93 e3be 5a42 093f 1afa c7bd cff9 debd
000003a0: bbe6 c13f 25bb ae3f 0b92 2dbf e557 0640
000003b0: 2e54 df3d f5be 863f 695e a3bd d6dd 173e
000003c0: a649 13be dae6 5c3e caba 66be a9c2 19bb
000003d0: ae01 a4bd e276 cdbe bda4 ab3e b6d2 f2bd
000003e0: dbd6 1d3e c645 b33f ce39 1440 b2e6 cabd
000003f0: c587 9d3d 29c4 603f 83ad 3c3e 1505 32be

l1.bias f4 [8]
0.2578029 0.29755512 0.3390905 0.3611674 0.39344722 0.1651652 0.38467118 0.4479651
00000000: befe 833e 2559 983e 459d ad3e efea b83e
00000010: ea71 c93e 1121 293e 9ff3 c43e ae5b e53e

l2.weight f4 [8, 8]
1.5193832 2.3757105 -0.101252966 -0.38965282 0.2861348 -2.7970357 -1.1356921 -0.16716526
0.7864593 4.4787297 -0.05987717 0.89378923 0.24288127 -0.890915 0.009319577 0.31722182
0.12311131 -0.020942913 -1.466909 -0.16515285 2.52937 -1.9374261 -0.42091098 -0.42861003
1.143403 0.13230428 3.074036 -0.54323834 0.0050783576 -0.021413585 0.019444855 3.649871
1.4337728 -0.1291471 -0.0061053894 0.100945964 0.012285963 4.617831 0.065862104 -0.04812719
-0.09347073 -0.004172772 -0.010810793 0.3737775 2.872203 -0.013317434 7.3483047 0.03673284
-0.15439188 -0.06412097 0.61295664 6.4222293 0.27331156 -0.021911435 0.0030148088 0.75086296
-0.030943971 -0.022631826 4.2550073 0.45941657 0.099299304 0.0009987636 -0.01619503 2.6500938
00000000: 267b c23f a40b 1840 b75d cfbd 9380 c7be
00000010: 4380 923e a202 33c0 5c5e 91bf 5f2d 2bbe
00000020: 6655 493f c151 8f40 c341 75bd 5fcf 643f
00000030: deb5 783e 0113 64bf 24b1 183c e66a a23e
00000040: c821 fc3d 7990 abbc adc3 bbbf d41d 29be
00000050: 33e1 2140 94fd f7bf a581 d7be c672 dbbe
00000060: 085b 923f c67a 073e 01bd 4440 ab11 0bbf
00000070: 5a68 a63b 8b6b afbc d14a 9f3c 7d97 6940
00000080: de85 b73f 233f 04be b80f c8bb c2bc ce3d
00000090: 104b 493c 46c5 9340 b6e2 863d 0421 45bd
000000a0: 956d bfbd c0bb 88bb c11f 31bc c45f bf3e
000000b0: 2dd2 3740 5e31 5abc 5025 eb40 2d75 163d
000000c0: e818 1ebe db51 83bd baea 1c3f e782 cd40
000000d0: 7eef 8b3e 9c7f b3bc 1994 453b 8e38 403f
000000e0: 367e fdbc 6166 b9bc 0529 8840 a638 eb3e
000000f0: 6f5d cb3d f2e8 823a 71ab 84bc 239b 2940

l2.bias f4 [8]
-0.7857586 -0.92777705 0.2798405 -0.08066807 -0.09014011 -0.0048675025 -0.22529106 -0.726808
00000000: 7a27 49bf cc82 6dbf 4147 8f3e 4d35 a5bd
00000010: 619b b8bd 927f 9fbb b3b2 66be 1710 3abf

l3.weight f4 [12, 8]
-3.6926422 -3.5091207 -1.3276461 0.0016773301 0.21226357 0.5570806 -7.7768426 -4.8338675
0.525936 0.5520863 -2.2012987 0.41147465 -2.4463708 0.19546469 0.5351042 0.5471092
0.60798854 0.56465274 -2.6182663 0.3494745 0.07558926 -5.106503 -0.6436277 0.42593893
-3.0526307 -2.9436772 -0.20167951 -6.9191546 0.35123307 -6.1714835 -5.448171 -6.2749147
-4.3612266 -0.4367133 -0.12921895 -8.118602 0.33394983 0.31201887 0.4442758 -5.31735
-0.09930278 -3.941346 -2.405509 0.109533295 0.33011058 -7.831317 -4.5273557 0.21555375
-4.858638 -4.636424 -2.5993114 0.3498897 -5.508142 0.51503825 0.13494802 0.48392
-1.2223469 0.43814698 0.3899176 0.18976681 0.19609806 0.5056452 0.50356925 0.41891924
-1.6380042 -0.8542926 -1.9261465 0.41702837 0.2288609 -2.9478838 0.47607926 0.54838
-2.4335096 -5.419083 0.49213797 -6.7323103 0.10112094 0.53593314 0.18155937 -3.995031
0.57676214 0.53117245 0.41137588 0.30691084 0.25829607 0.16439766 -2.4493833 -3.712725
0.35933328 0.4246693 0.5822149 -4.549168 -4.9740505 0.46769556 0.27296403 -3.3818648
00000000: 4054 6cc0 6f95 60c0 4ff0 a9bf dcd9 db3a
00000010: 9f5b 593e d69c 0e3f e5db f8c0 0baf 9ac0
00000020: bea3 063f 8755 0d3f 14e2 0cc0 ceac d23e
00000030: 5791 1cc0 e527 483e 97fc 083f 590f 0c3f
00000040: 23a5 1b3f 158d 103f ad91 27c0 52ee b23e
00000050: 8bce 9a3d 7968 a3c0 c9c4 24bf ab14 da3e
00000060: 4d5e 43c0 3565 3cc0 1385 4ebe b769 ddc0
00000070: d2d4 b33e cb7c c5c0 6b57 aec0 1acc c8c0
00000080: 2b8f 8bc0 e398 dfbe f951 04be cbe5 01c1
00000090: 79fb aa3e f0c0 9f3e 1e78 e33e bb27 aac0
000000a0: 425f cbbd 033f 7cc0 dcf3 19c0 fe52 e03d
000000b0: 4104 a93e 269a fac0 19e0 90c0 1fba 5c3e
000000c0: f679 9bc0 965d 94c0 1e5b 26c0 be24 b33e
000000d0: b342 b0c0 8cd9 033f d02f 0a3e 5dc4 f73e
000000e0: dd75 9cbf cd54 e03e 48a3 c73e 3b52 423e
000000f0: eecd 483e f771 013f eae9 003f 957c d63e
00000100: 1faa d1bf ebb2 5abf f88b f6bf be84 d53e
00000110: 835a 6a3e 21aa 3cc0 a9c0 f33e a262 0c3f
00000120: 9fbe 1bc0 2169 adc0 82f9 fb3e 166f d7c0
00000130: 7f18 cf3d ea32 093f b3ea 393e 97ae 7fc0
00000140: afa6 133f ebfa 073f dc9f d23e 6b23 9d3e
00000150: 623f 843e dc57 283e b2c2 1cc0 499d 6dc0
00000160: 88fa b73e 416e d93e 090c 153f c992 91c0
00000170: 6c2b 9fc0 cb75 ef3e f1c1 8b3e 7970 58c0

l3.bias f4 [12]
1.6287105 -2.7928953 -1.4366705 2.5165691 1.1266887 1.5334216 1.2825853 -2.0189874
-1.5777402 1.0188941 -0.73345834 -0.025672736
00000000: 9679 d03f ccbe 32c0 d2e4 b7bf 780f 2140
00000010: 5637 903f 2947 c43f c12b a43f 1737 01c0
00000020: 64f3 c9bf 1f6b 823f edc3 3bbf a14f d2bc
