data.pth (torch, 17322 bytes, 6 tensors)

l1.weight f4 [8, 298]
00000000: 0ed7 88bd 045d 703b 7427 5cbd 2690 01bd
00000010: 5bec 1dbf 96cd 2d3e b590 e43d efcf ad3f
00000020: 5a02 57be 7a6f cabe 552c a5bd 8ae9 8ebe
00000030: 1d2f 183e 8cb7 d33e c20a 17be 1970 f43e
00000040: 9547 dd3d 37b3 e73e 1470 e8be db11 833e
00000050: d8dd 9fbd 607e 54be 1853 ecbd f5d4 23bc
00000060: f72a 9340 331d e63d d66b 083f 7033 1fbe
00000070: 9035 a43b 593a 863c d5cb 26be c6e5 a1be
00000080: f8b5 113f b4e7 6abf 7f26 95bf 28d4 5c3e
00000090: 0aaf 1ebd 1c56 663f 462a a83e f202 10bf
000000a0: b417 13bd 6d5c 80bd e731 19be 4037 a03f
000000b0: 190c e0bd b20d 9abc 446f 203f 60ae bd3e
000000c0: 520a 223f 9164 c1bd cf0d c53c c27f e2bd
000000d0: 56fe 8b3f a52b 4ebe 37b3 61bf 9532 b8bd
000000e0: 62d8 f03b 4153 2440 5a05 503d 7dcb d43f
000000f0: 5360 b940 fd9a 80bd f782 81bd ace5 073e
00000100: c328 e7bd 9305 e7bd 1699 89bc c187 1dbe
00000110: ddd5 793e 8bd7 14be 76e2 77bd 4fb4 113e
00000120: 6ec5 5bbe 51df 48bd 3c6f 893f f8b0 dc3b
00000130: 9400 bc3f 42ac b43e 9cd6 d3be 87f6 363c
00000140: cc8c 9f3f 434a 84bd 9c50 d73b abef a8be
00000150: 49f0 553f cef0 053f f583 9fbd 7cbb e0bd
00000160: a584 c83d dc86 7b3e 7c13 0b41 64cd fb3f
00000170: 1b6b 25be c690 02be 0df6 c6bd d56d 183e
00000180: bdbe 88be 8e72 6dbe cc81 17be 7e59 05bf
00000190: ed45 8cbe c121 7cbe eac2 06be 12fc 28bf
000001a0: 90f5 c2be 45d8 2d3f 2bc0 66be 9670 4abd
000001b0: 1b62 07be e8d3 f23f 7a5a 36be 1327 4abd
000001c0: fa88 07be 4c8d ac3e 4f48 83be 5c4a 59be
000001d0: ec02 32bd cdb8 98bd 704f a4bd 1157 f440
000001e0: eb7f 96bd a3e0 a7bc 36e5 50be 6817 203d
000001f0: 1b1a 7a3f b33f 2bbf ca70 8dbe 27ca d9bd
00000200: a119 e03d 2662 39bf 6d2e a9bd 943d 92be
00000210: 903e 0bbe aa52 5e3e 5140 eb3e 803c 1540
00000220: 9be5 a63e 4e05 e4be 2a0f 8bbd 6c94 af3e
00000230: c7e3 c23c cadd 063f 1359 38bd 9909 3c3e
00000240: 9e6d d33c dc62 8e3f b80b 53be a646 ee3f
00000250: 2c8d e9be 4fdc 843a 8958 59bf 0e0c 29bf
00000260: 2555 cf3e 6b08 b8be 847f f13f 60bc 19be
00000270: c308 553f 2fd7 683f 5481 2b3e dbdd 583e
00000280: 0626 b0be a6da 0ebe 090c fbbd f214 bcbc
00000290: 2bac 84bd 262d 93be 9f7a 1e3f aea6 8bbd
000002a0: 9be8 753f 40e9 bbbd da53 3c3e 0d53 f33f
000002b0: 32eb 973e 32fc 743f b4b4 e43c 639f fabd
000002c0: 069b 6ebd a48a 7340 73eb fb40 2c46 10be
000002d0: d050 0e3f 3292 4dbe 3d8e 1e3e eddf e3be
000002e0: d6b7 ecbe c104 e0bd c161 31be c094 943d
000002f0: 9664 1ebd ea08 08be 9bbd 84be 0d08 3b3f
00000300: 1dfa c13c 8d86 93bd 3ef8 55be 0eb8 e6bd
00000310: a508 f0bd 8ca2 c8bd 6ba1 ffbd dd0a 9f3e
00000320: a867 a3bb b855 b0be ec9b 61bd 8df2 243b
00000330: 5edb 443e f85b 2abd 0c30 37be a990 40bd
00000340: 1c4f 763f 6e56 273b 64eb 3f3f 1d60 a03e
00000350: 0fa6 2fbd abed 5d3e c474 4ebf 8149 86be
00000360: 4d6e 0ebf c87e a9be 1298 2abf 71e6 2cbe
00000370: 9f2c e6bd e6cf 20bd 8d2d 0fbd dcaa 54bf
00000380: a002 8dbb 9b67 a0bd c633 2dbe a4d2 c13f
00000390: 243c 0e3d 0462 8bbd 282b 0abf 3c74 7f3f
000003a0: d903 e6be 73a2 7f3f d22c 343d cc8c 1ebe
000003b0: 914a 5b3e 2557 933f 794d 1d3b 2b59 cdbe
000003c0: 8f49 f03d a5e6 c1bd 97e1 7dbc 2812 b23c
000003d0: c980 bf3f 2a6b 8cbc 5245 4dbe f73a a3be
000003e0: 2db2 f1be 424d 2dbd c9b0 1dbd a174 9bbf
000003f0: 211c ca3f 8b82 bbbe 2608 5b3f 1265 89be
-0.066816434 0.0036676535 -0.053748563 -0.03163161 -0.61688775 0.16972956 0.11160413 1.3579081
-0.20996991 -0.39538175 -0.08065096 -0.2791255 0.14861722 0.41350973 -0.14750198 0.47741774
0.10804669 0.45253918 -0.4539801 0.2559956 -0.07805985 -0.20751333 -0.115392864 -0.009999503
4.5989947 0.11236038 0.53289545 -0.15546966 0.005011268 0.016385244 -0.16288693 -0.31620616
0.5691829 -0.917598 -1.1652373 0.21565306 -0.03874115 0.8997514 0.32844752 -0.56254494
-0.035911277 -0.06267629 -0.14960442 1.2516861 -0.109398074 -0.018805359 0.6266978 0.370471
0.63297 -0.0944301 0.024054436 -0.11059524 1.0936992 -0.20133837 -0.88164085 -0.08994023
0.0073500136 2.5675814 0.050786354 1.66246 5.7930083 -0.06279562 -0.06323808 0.13271207
-0.112870716 -0.1128036 -0.01679663 -0.15383817 0.24397989 -0.14535348 -0.060518704 0.14228939
-0.21462032 -0.049041096 1.0737071 0.0067349635 1.4687676 0.35287672 -0.4137467 0.011167175
1.2464843 -0.06459477 0.0065708887 -0.32995352 0.8356977 0.52320564 -0.07788841 -0.1097326
0.09790925 0.24563164 8.692257 1.9672055 -0.16154139 -0.12750539 -0.09714899 0.14885648
-0.26708022 -0.2318823 -0.14795607 -0.5208968 -0.273971 -0.24622251 -0.13160291 -0.6600963
-0.38077974 0.67908126 -0.22534244 -0.049423777 -0.13221018 1.8970919 -0.17807952 -0.04935367
-0.13235846 0.3370155 -0.25641105 -0.21219772 -0.043459818 -0.07457123 -0.08022964 7.635628
-0.07348617 -0.020492857 -0.20399937 0.039084822 0.97696084 -0.6689407 -0.27625114 -0.106342606
0.10942388 -0.7241539 -0.08260808 -0.28562605 -0.13598084 0.21711221 0.45947507 2.3318176
0.3259705 -0.44535297 -0.06790002 0.34292924 0.023790253 0.52682173 -0.045006823 0.18363036
0.025809105 1.112392 -0.20609939 1.861531 -0.45615518 0.0010136458 -0.8490072 -0.6603402
0.40494648 -0.35943922 1.886704 -0.15013266 0.83216494 0.90953344 0.16748554 0.21178381
-0.3440401 -0.13950595 -0.12258155 -0.022959206 -0.06478151 -0.28745383 0.61905855 -0.06818901
0.9605805 -0.09175348 0.18391362 1.900972 0.29671627 0.9569732 0.027918197 -0.12237432
-0.05825331 3.805337 7.8724914 -0.14089268 0.5559206 -0.200753 0.15483947 -0.4450678
-0.46234006 -0.10938407 -0.17322446 0.07254934 -0.038670145 -0.1328465 -0.25925907 0.7305916
0.023678834 -0.07203398 -0.20895478 -0.112655744 -0.11720399 -0.09796628 -0.1248196 0.31062976
-0.004986722 -0.34440398 -0.05508034 0.0025168986 0.19224307 -0.041591614 -0.17889422 -0.04701296
0.9621446 0.0025533694 0.7496855 0.3132333 -0.042882975 0.21672694 -0.8064692 -0.26227954
-0.55637056 -0.3310454 -0.6663829 -0.16884781 -0.112389795 -0.039260767 -0.03495555 -0.8307321
-0.0043032914 -0.07832261 -0.16914281 1.5142407 0.034725323 -0.06805804 -0.539721 0.99786735
-0.4492481 0.9985725 0.043988056 -0.15483397 0.21415164 1.1510969 0.0024002476 -0.40107092
0.1173278 -0.0946782 -0.015495679 0.021737173 1.4961177 -0.017140944 -0.20045975 -0.31880924
-0.4720625 -0.042310007 -0.038498674 -1.2144967 1.5789834 -0.36623034 0.8555931 -0.26834923

l1.bias f4 [8]
00000000: 74ef 633e 4c29 4dbd 8570 65bd 5264 32be
00000010: efeb 0e3d a791 df3e 1c97 6bbc d3c3 6fbc
0.22259313 -0.050088212 -0.05601551 -0.17421082 0.034892973 0.4366581 -0.014379289 -0.0146340905

l2.weight f4 [8, 8]
00000000: 36c0 b5bd 4f0d 11bf f5a1 eb40 0515 3f40
00000010: c0b1 ca3d 0899 6c3e 7ee0 fc3c 71d4 1ebd
00000020: b88b 1441 217a 4e3e c3ec 2dbb 29b5 e9bb
00000030: 63dc 53be bc7a 9940 99da 813e b467 95bb
00000040: 3bfb 9c3e 25bf ab3d 03c3 9fbd 612c cc3c
00000050: c903 94c0 c385 59be 2437 3b41 4f96 afbf
00000060: a836 25be 9c80 47be 22f8 9a40 c6a2 ab40
00000070: 6f7d 9dbe bd25 52bd 42d4 1c40 5ac2 40bd
00000080: d699 1abc bb60 9740 7b39 fbbd 98a6 a93f
00000090: 0b25 bcbe 407b 99be 9887 09bd 6790 e63f
000000a0: 539a 1ebf 93f2 5abf 1350 c6be 88e1 f6bf
000000b0: 589d 8540 d418 453a 9603 20bd c229 0840
000000c0: c0f6 8340 de91 063f f577 37bf 53ae 09bf
000000d0: 433d 09bd cd6c a940 fc51 d3bd d098 2abd
000000e0: 7b3c 31bc af6f 9c3e 7425 efbc 4c08 ebbc
000000f0: 9f94 c040 fc5e 14bd ec61 fcbb 14b8 ed40
-0.08874552 -0.5666093 7.36352 2.985658 0.09897184 0.23105252 0.030868765 -0.03877682
9.284111 0.20163776 -0.0026538826 -0.0071321917 -0.2068954 4.796232 0.2536209 -0.0045594815
0.30660424 0.08386067 -0.078008674 0.024923505 -4.625462 -0.21242432 11.700962 -1.3717746
-0.16134131 -0.19482654 4.8427896 5.36362 -0.3075976 -0.05130552 2.4504552 -0.047060348
-0.009436091 4.730558 -0.12266823 1.3253965 -0.36747012 -0.29976845 -0.033576578 1.8012818
-0.6195423 -0.8552639 -0.38732967 -1.9287577 4.175457 0.00075186533 -0.03906592 2.1275487
4.123871 0.52566326 -0.71667415 -0.5378162 -0.03350569 5.2945313 -0.10318372 -0.04164964
-0.010817642 0.30553958 -0.029192664 -0.02869048 6.018142 -0.036223397 -0.007702103 7.4287205

l2.bias f4 [8]
00000000: ad1a 96bd c0a6 6abe c8a6 983e 19ff 0c3e
00000010: e5dc ddbe 268f 583f 8f14 57bd b3ac 0abe
-0.07329307 -0.22915173 0.29814744 0.13769187 -0.43332592 0.8459343 -0.05250984 -0.13542442

l3.weight f4 [17, 8]
00000000: 61cb 31c1 eb7b 853e 71e5 d33e 8ea1 c2be
00000010: cc14 02c1 2979 5cbe 96ea 153e 4366 2ec1
00000020: cfd5 35c1 5377 49c1 80a8 4abf 40c7 edbf
00000030: ff85 2fc1 c606 9cbd 8cc7 58c1 2914 28c1
00000040: 5b36 47c0 fd39 f93e 4c2c 1ebe 2e6f c9c0
00000050: bd67 e93e 68a6 283f cadd 063f c644 133f
00000060: 6375 7a3e 5eeb 61c1 7c86 91c0 2093 8b3e
00000070: 6f2d 76bd 63db 433e 13ba c3c0 b1fc b23e
00000080: 7350 ecc0 8644 f4bf 9265 0d3f 4971 a73e
00000090: 0423 21c1 81fc 2b3e 603b 47c1 8743 2ec1
000000a0: 34ea 873e d8a8 df3e 82e7 063f 8d05 d33e
000000b0: 0fa1 b13e 7d76 06c0 c324 ce3e be51 903e
000000c0: bb2c 023f 830e 89bf 1c14 74c0 97ed fb3e
000000d0: 6471 dc3e 53d1 55bf e52a 8dbe 3efb e23e
000000e0: 6352 063f afb6 3fc1 bce5 073f cdf3 043f
000000f0: bcc9 e33e ce78 c33e f0ea 2cbf a9fc cbc0
00000100: e39a fa3e fd70 963e 9b73 0f3f 9795 fe3e
00000110: 9638 9a3e 358f 85c0 ce93 8cbf 95ec e5c0
00000120: b2c3 eb3e 62ce 843e e30b 78c0 8fe8 cf3e
00000130: 3ada 1fbf 94a6 223f 8d22 ae3e a1dc 0b3f
00000140: 6478 35bf 9e1b db3e ea1c a5c0 e22e 02c1
00000150: 0c3c acc0 989f d33e 6b78 f03e b067 b93e
00000160: 4502 7c3d 708e 003f 616a c13e fe5e 5dc0
00000170: a212 68be c1d1 aebe 8b6b 083f e8ce edc0
00000180: c575 aec0 6079 ef3e 0474 693b 88b2 c6c0
00000190: b5a8 353e f7aa 10c0 ca82 f53e a9bc b9bf
000001a0: 9822 c73e 4644 7ec1 bb1a 1bbf ada9 d43e
000001b0: f2a7 d8c0 4009 51bf 478b 26c1 a766 dbbf
000001c0: d096 4dc1 1c3f 06c1 6df3 76c0 6f30 2bc1
000001d0: e382 253e 3675 0e3f 3fb7 6fbf 6472 053f
000001e0: 3990 f43e 60bf f73e c143 0a3f f0c2 dd3e
000001f0: 8734 a1c0 8b96 5dc0 dc58 023f 52cb 1dc1
00000200: 7f38 aa3d 65c8 e1c0 a7a3 473e d804 84bf
00000210: f235 ab3e dc61 2a3f fb96 7bc1 7294 113f
-11.112153 0.26071104 0.41385987 -0.3801388 -8.130077 -0.21530594 0.14640269 -10.899966
-11.364699 -12.591632 -0.7916336 -1.8576431 -10.970214 -0.076184794 -13.5487175 -10.504922
-3.1126926 0.48677054 -0.15446585 -6.2948217 0.4558696 0.65878916 0.52682173 0.57526815
0.24458842 -14.119963 -4.5476665 0.27260685 -0.060101923 0.19126658 -6.116464 0.34958413
-7.3848205 -1.9083412 0.5523311 0.32703617 -10.071049 0.16795541 -12.451996 -10.891486
0.2654587 0.43683505 0.52697 0.41215172 0.3469319 -2.100982 0.40262422 0.28187364
0.50849503 -1.0707554 -3.8137274 0.49204704 0.4305526 -0.8352253 -0.27571788 0.44332308
0.5246946 -11.9821005 0.5308492 0.5193451 0.4448985 0.38178104 -0.67545986 -6.3745923
0.48946294 0.29383078 0.56035775 0.49723503 0.30121297 -4.1737313 -1.0982606 -7.1851296
0.4604774 0.25938708 -3.8757255 0.40607116 -0.6244236 0.6353543 0.34010735 0.5463353
-0.70886827 0.42794508 -5.1597795 -8.136446 -5.38233 0.41332698 0.46966872 0.3621192
0.061525602 0.5021734 0.37776473 -3.4589229 -0.22663358 -0.34144405 0.532891 -7.431507
-5.451876 0.4677229 0.003562213 -6.2092934 0.17740138 -2.2604349 0.47951347 -1.45107
0.3889358 -15.891668 -0.6058766 0.41535702 -6.770501 -0.8165474 -10.409003 -1.7140702
-12.849319 -8.390408 -3.8586075 -10.699325 0.1616321 0.556476 -0.93638986 0.5212767
0.47766283 0.48388195 0.54009634 0.43312788 -5.037662 -3.4623134 0.5091684 -9.862139
0.08311557 -7.055712 0.19496022 -1.0313978 0.33439595 0.6655557 -15.72436 0.56867135

l3.bias f4 [17]
00000000: 6461 2d40 d0aa 9440 3d8d bcc0 6396 0340
00000010: 8b9a f23f 8cb5 adbf 5601 f5bf 99a6 5dc0
00000020: 8ad8 b1bf eea1 e8bf dea1 ee3f 134f f7bf
00000030: 1af5 b03f 9fb0 2f40 a463 0d40 3e9b 03c0
00000040: c5e6 cabf
2.7090693 4.645851 -5.892241 2.0560539 1.8953413 -1.3571029 -1.9141033 -3.4632933
-1.3894207 -1.8174417 1.8643148 -1.9321007 1.3824799 2.745155 2.2092066 -2.0563502
-1.5851675
